{
  "nodes": [
    {
      "op": "null", 
      "name": "target", 
      "inputs": []
    }, 
    {
      "op": "null", 
      "name": "target_embed_weight", 
      "attrs": {"__shape__": "(29337, 256)"}, 
      "inputs": []
    }, 
    {
      "op": "Embedding", 
      "name": "target_embed_embed", 
      "attrs": {
        "input_dim": "29337", 
        "output_dim": "256"
      }, 
      "inputs": [[0, 0, 0], [1, 0, 0]]
    }, 
    {
      "op": "SliceChannel", 
      "name": "split5", 
      "attrs": {
        "axis": "1", 
        "num_outputs": "60", 
        "squeeze_axis": "True"
      }, 
      "inputs": [[2, 0, 0]]
    }, 
    {
      "op": "null", 
      "name": "source", 
      "inputs": []
    }, 
    {
      "op": "_zeros", 
      "name": "_zeros0", 
      "attrs": {
        "dtype": "float32", 
        "shape": "(1,)"
      }, 
      "inputs": []
    }, 
    {
      "op": "broadcast_not_equal", 
      "name": "broadcast_not_equal0", 
      "inputs": [[4, 0, 0], [5, 0, 0]]
    }, 
    {
      "op": "sum", 
      "name": "sum0", 
      "attrs": {"axis": "1"}, 
      "inputs": [[6, 0, 0]]
    }, 
    {
      "op": "zeros_like", 
      "name": "zeros_like3", 
      "inputs": [[7, 0, 0]]
    }, 
    {
      "op": "expand_dims", 
      "name": "expand_dims365", 
      "attrs": {"axis": "1"}, 
      "inputs": [[8, 0, 0]]
    }, 
    {
      "op": "tile", 
      "name": "tile1", 
      "attrs": {"reps": "(1, 512)"}, 
      "inputs": [[9, 0, 0]]
    }, 
    {
      "op": "Concat", 
      "name": "decoder_rnn_concat_target_context_t0", 
      "attrs": {
        "dim": "1", 
        "num_args": "2"
      }, 
      "inputs": [[3, 0, 0], [10, 0, 0]]
    }, 
    {
      "op": "null", 
      "name": "decoder_rnn_l0_i2h_weight", 
      "inputs": []
    }, 
    {
      "op": "null", 
      "name": "decoder_rnn_l0_i2h_bias", 
      "attrs": {"__init__": "[\"lstmbias\", {\"forget_bias\": 0.0}]"}, 
      "inputs": []
    }, 
    {
      "op": "FullyConnected", 
      "name": "decoder_rnn_l0_t0_i2h", 
      "attrs": {"num_hidden": "2048"}, 
      "inputs": [[11, 0, 0], [12, 0, 0], [13, 0, 0]]
    }, 
    {
      "op": "null", 
      "name": "source_embed_weight", 
      "attrs": {"__shape__": "(24007, 256)"}, 
      "inputs": []
    }, 
    {
      "op": "Embedding", 
      "name": "source_embed_embed", 
      "attrs": {
        "input_dim": "24007", 
        "output_dim": "256"
      }, 
      "inputs": [[4, 0, 0], [15, 0, 0]]
    }, 
    {
      "op": "SwapAxis", 
      "name": "swapaxes121", 
      "attrs": {
        "__layout__": "TNC", 
        "dim1": "0", 
        "dim2": "1"
      }, 
      "inputs": [[16, 0, 0]]
    }, 
    {
      "op": "SliceChannel", 
      "name": "split3", 
      "attrs": {
        "axis": "0", 
        "num_outputs": "60", 
        "squeeze_axis": "1"
      }, 
      "inputs": [[17, 0, 0]]
    }, 
    {
      "op": "null", 
      "name": "encoder_birnn_forward_l0_i2h_weight", 
      "inputs": []
    }, 
    {
      "op": "null", 
      "name": "encoder_birnn_forward_l0_i2h_bias", 
      "attrs": {"__init__": "[\"lstmbias\", {\"forget_bias\": 0.0}]"}, 
      "inputs": []
    }, 
    {
      "op": "FullyConnected", 
      "name": "encoder_birnn_forward_l0_t0_i2h", 
      "attrs": {"num_hidden": "1024"}, 
      "inputs": [[18, 0, 0], [19, 0, 0], [20, 0, 0]]
    }, 
    {
      "op": "_zeros", 
      "name": "encoder_birnn_forward_l0_begin_state_0", 
      "attrs": {
        "__layout__": "NC", 
        "dtype": "float32", 
        "shape": "(0, 256)"
      }, 
      "inputs": []
    }, 
    {
      "op": "null", 
      "name": "encoder_birnn_forward_l0_h2h_weight", 
      "inputs": []
    }, 
    {
      "op": "null", 
      "name": "encoder_birnn_forward_l0_h2h_bias", 
      "inputs": []
    }, 
    {
      "op": "FullyConnected", 
      "name": "encoder_birnn_forward_l0_t0_h2h", 
      "attrs": {"num_hidden": "1024"}, 
      "inputs": [[22, 0, 0], [23, 0, 0], [24, 0, 0]]
    }, 
    {
      "op": "elemwise_add", 
      "name": "_plus180", 
      "inputs": [[21, 0, 0], [25, 0, 0]]
    }, 
    {
      "op": "SliceChannel", 
      "name": "encoder_birnn_forward_l0_t0_slice", 
      "attrs": {"num_outputs": "4"}, 
      "inputs": [[26, 0, 0]]
    }, 
    {
      "op": "Activation", 
      "name": "encoder_birnn_forward_l0_t0_o", 
      "attrs": {"act_type": "sigmoid"}, 
      "inputs": [[27, 3, 0]]
    }, 
    {
      "op": "Activation", 
      "name": "encoder_birnn_forward_l0_t0_f", 
      "attrs": {"act_type": "sigmoid"}, 
      "inputs": [[27, 1, 0]]
    }, 
    {
      "op": "_zeros", 
      "name": "encoder_birnn_forward_l0_begin_state_1", 
      "attrs": {
        "__layout__": "NC", 
        "dtype": "float32", 
        "shape": "(0, 256)"
      }, 
      "inputs": []
    }, 
    {
      "op": "elemwise_mul", 
      "name": "_mul360", 
      "inputs": [[29, 0, 0], [30, 0, 0]]
    }, 
    {
      "op": "Activation", 
      "name": "encoder_birnn_forward_l0_t0_i", 
      "attrs": {"act_type": "sigmoid"}, 
      "inputs": [[27, 0, 0]]
    }, 
    {
      "op": "Activation", 
      "name": "encoder_birnn_forward_l0_t0_c", 
      "attrs": {"act_type": "tanh"}, 
      "inputs": [[27, 2, 0]]
    }, 
    {
      "op": "elemwise_mul", 
      "name": "_mul361", 
      "inputs": [[32, 0, 0], [33, 0, 0]]
    }, 
    {
      "op": "elemwise_add", 
      "name": "encoder_birnn_forward_l0_t0_state", 
      "inputs": [[31, 0, 0], [34, 0, 0]]
    }, 
    {
      "op": "Activation", 
      "name": "activation180", 
      "attrs": {"act_type": "tanh"}, 
      "inputs": [[35, 0, 0]]
    }, 
    {
      "op": "elemwise_mul", 
      "name": "encoder_birnn_forward_l0_t0_out", 
      "inputs": [[28, 0, 0], [36, 0, 0]]
    }, 
    {
      "op": "expand_dims", 
      "name": "expand_dims243", 
      "attrs": {"axis": "0"}, 
      "inputs": [[37, 0, 0]]
    }, 
    {
      "op": "FullyConnected", 
      "name": "encoder_birnn_forward_l0_t1_i2h", 
      "attrs": {"num_hidden": "1024"}, 
      "inputs": [[18, 1, 0], [19, 0, 0], [20, 0, 0]]
    }, 
    {
      "op": "FullyConnected", 
      "name": "encoder_birnn_forward_l0_t1_h2h", 
      "attrs": {"num_hidden": "1024"}, 
      "inputs": [[37, 0, 0], [23, 0, 0], [24, 0, 0]]
    }, 
    {
      "op": "elemwise_add", 
      "name": "_plus181", 
      "inputs": [[39, 0, 0], [40, 0, 0]]
    }, 
    {
      "op": "SliceChannel", 
      "name": "encoder_birnn_forward_l0_t1_slice", 
      "attrs": {"num_outputs": "4"}, 
      "inputs": [[41, 0, 0]]
    }, 
    {
      "op": "Activation", 
      "name": "encoder_birnn_forward_l0_t1_o", 
      "attrs": {"act_type": "sigmoid"}, 
      "inputs": [[42, 3, 0]]
    }, 
    {
      "op": "Activation", 
      "name": "encoder_birnn_forward_l0_t1_f", 
      "attrs": {"act_type": "sigmoid"}, 
      "inputs": [[42, 1, 0]]
    }, 
    {
      "op": "elemwise_mul", 
      "name": "_mul362", 
      "inputs": [[44, 0, 0], [35, 0, 0]]
    }, 
    {
      "op": "Activation", 
      "name": "encoder_birnn_forward_l0_t1_i", 
      "attrs": {"act_type": "sigmoid"}, 
      "inputs": [[42, 0, 0]]
    }, 
    {
      "op": "Activation", 
      "name": "encoder_birnn_forward_l0_t1_c", 
      "attrs": {"act_type": "tanh"}, 
      "inputs": [[42, 2, 0]]
    }, 
    {
      "op": "elemwise_mul", 
      "name": "_mul363", 
      "inputs": [[46, 0, 0], [47, 0, 0]]
    }, 
    {
      "op": "elemwise_add", 
      "name": "encoder_birnn_forward_l0_t1_state", 
      "inputs": [[45, 0, 0], [48, 0, 0]]
    }, 
    {
      "op": "Activation", 
      "name": "activation181", 
      "attrs": {"act_type": "tanh"}, 
      "inputs": [[49, 0, 0]]
    }, 
    {
      "op": "elemwise_mul", 
      "name": "encoder_birnn_forward_l0_t1_out", 
      "inputs": [[43, 0, 0], [50, 0, 0]]
    }, 
    {
      "op": "expand_dims", 
      "name": "expand_dims244", 
      "attrs": {"axis": "0"}, 
      "inputs": [[51, 0, 0]]
    }, 
    {
      "op": "FullyConnected", 
      "name": "encoder_birnn_forward_l0_t2_i2h", 
      "attrs": {"num_hidden": "1024"}, 
      "inputs": [[18, 2, 0], [19, 0, 0], [20, 0, 0]]
    }, 
    {
      "op": "FullyConnected", 
      "name": "encoder_birnn_forward_l0_t2_h2h", 
      "attrs": {"num_hidden": "1024"}, 
      "inputs": [[51, 0, 0], [23, 0, 0], [24, 0, 0]]
    }, 
    {
      "op": "elemwise_add", 
      "name": "_plus182", 
      "inputs": [[53, 0, 0], [54, 0, 0]]
    }, 
    {
      "op": "SliceChannel", 
      "name": "encoder_birnn_forward_l0_t2_slice", 
      "attrs": {"num_outputs": "4"}, 
      "inputs": [[55, 0, 0]]
    }, 
    {
      "op": "Activation", 
      "name": "encoder_birnn_forward_l0_t2_o", 
      "attrs": {"act_type": "sigmoid"}, 
      "inputs": [[56, 3, 0]]
    }, 
    {
      "op": "Activation", 
      "name": "encoder_birnn_forward_l0_t2_f", 
      "attrs": {"act_type": "sigmoid"}, 
      "inputs": [[56, 1, 0]]
    }, 
    {
      "op": "elemwise_mul", 
      "name": "_mul364", 
      "inputs": [[58, 0, 0], [49, 0, 0]]
    }, 
    {
      "op": "Activation", 
      "name": "encoder_birnn_forward_l0_t2_i", 
      "attrs": {"act_type": "sigmoid"}, 
      "inputs": [[56, 0, 0]]
    }, 
    {
      "op": "Activation", 
      "name": "encoder_birnn_forward_l0_t2_c", 
      "attrs": {"act_type": "tanh"}, 
      "inputs": [[56, 2, 0]]
    }, 
    {
      "op": "elemwise_mul", 
      "name": "_mul365", 
      "inputs": [[60, 0, 0], [61, 0, 0]]
    }, 
    {
      "op": "elemwise_add", 
      "name": "encoder_birnn_forward_l0_t2_state", 
      "inputs": [[59, 0, 0], [62, 0, 0]]
    }, 
    {
      "op": "Activation", 
      "name": "activation182", 
      "attrs": {"act_type": "tanh"}, 
      "inputs": [[63, 0, 0]]
    }, 
    {
      "op": "elemwise_mul", 
      "name": "encoder_birnn_forward_l0_t2_out", 
      "inputs": [[57, 0, 0], [64, 0, 0]]
    }, 
    {
      "op": "expand_dims", 
      "name": "expand_dims245", 
      "attrs": {"axis": "0"}, 
      "inputs": [[65, 0, 0]]
    }, 
    {
      "op": "FullyConnected", 
      "name": "encoder_birnn_forward_l0_t3_i2h", 
      "attrs": {"num_hidden": "1024"}, 
      "inputs": [[18, 3, 0], [19, 0, 0], [20, 0, 0]]
    }, 
    {
      "op": "FullyConnected", 
      "name": "encoder_birnn_forward_l0_t3_h2h", 
      "attrs": {"num_hidden": "1024"}, 
      "inputs": [[65, 0, 0], [23, 0, 0], [24, 0, 0]]
    }, 
    {
      "op": "elemwise_add", 
      "name": "_plus183", 
      "inputs": [[67, 0, 0], [68, 0, 0]]
    }, 
    {
      "op": "SliceChannel", 
      "name": "encoder_birnn_forward_l0_t3_slice", 
      "attrs": {"num_outputs": "4"}, 
      "inputs": [[69, 0, 0]]
    }, 
    {
      "op": "Activation", 
      "name": "encoder_birnn_forward_l0_t3_o", 
      "attrs": {"act_type": "sigmoid"}, 
      "inputs": [[70, 3, 0]]
    }, 
    {
      "op": "Activation", 
      "name": "encoder_birnn_forward_l0_t3_f", 
      "attrs": {"act_type": "sigmoid"}, 
      "inputs": [[70, 1, 0]]
    }, 
    {
      "op": "elemwise_mul", 
      "name": "_mul366", 
      "inputs": [[72, 0, 0], [63, 0, 0]]
    }, 
    {
      "op": "Activation", 
      "name": "encoder_birnn_forward_l0_t3_i", 
      "attrs": {"act_type": "sigmoid"}, 
      "inputs": [[70, 0, 0]]
    }, 
    {
      "op": "Activation", 
      "name": "encoder_birnn_forward_l0_t3_c", 
      "attrs": {"act_type": "tanh"}, 
      "inputs": [[70, 2, 0]]
    }, 
    {
      "op": "elemwise_mul", 
      "name": "_mul367", 
      "inputs": [[74, 0, 0], [75, 0, 0]]
    }, 
    {
      "op": "elemwise_add", 
      "name": "encoder_birnn_forward_l0_t3_state", 
      "inputs": [[73, 0, 0], [76, 0, 0]]
    }, 
    {
      "op": "Activation", 
      "name": "activation183", 
      "attrs": {"act_type": "tanh"}, 
      "inputs": [[77, 0, 0]]
    }, 
    {
      "op": "elemwise_mul", 
      "name": "encoder_birnn_forward_l0_t3_out", 
      "inputs": [[71, 0, 0], [78, 0, 0]]
    }, 
    {
      "op": "expand_dims", 
      "name": "expand_dims246", 
      "attrs": {"axis": "0"}, 
      "inputs": [[79, 0, 0]]
    }, 
    {
      "op": "FullyConnected", 
      "name": "encoder_birnn_forward_l0_t4_i2h", 
      "attrs": {"num_hidden": "1024"}, 
      "inputs": [[18, 4, 0], [19, 0, 0], [20, 0, 0]]
    }, 
    {
      "op": "FullyConnected", 
      "name": "encoder_birnn_forward_l0_t4_h2h", 
      "attrs": {"num_hidden": "1024"}, 
      "inputs": [[79, 0, 0], [23, 0, 0], [24, 0, 0]]
    }, 
    {
      "op": "elemwise_add", 
      "name": "_plus184", 
      "inputs": [[81, 0, 0], [82, 0, 0]]
    }, 
    {
      "op": "SliceChannel", 
      "name": "encoder_birnn_forward_l0_t4_slice", 
      "attrs": {"num_outputs": "4"}, 
      "inputs": [[83, 0, 0]]
    }, 
    {
      "op": "Activation", 
      "name": "encoder_birnn_forward_l0_t4_o", 
      "attrs": {"act_type": "sigmoid"}, 
      "inputs": [[84, 3, 0]]
    }, 
    {
      "op": "Activation", 
      "name": "encoder_birnn_forward_l0_t4_f", 
      "attrs": {"act_type": "sigmoid"}, 
      "inputs": [[84, 1, 0]]
    }, 
    {
      "op": "elemwise_mul", 
      "name": "_mul368", 
      "inputs": [[86, 0, 0], [77, 0, 0]]
    }, 
    {
      "op": "Activation", 
      "name": "encoder_birnn_forward_l0_t4_i", 
      "attrs": {"act_type": "sigmoid"}, 
      "inputs": [[84, 0, 0]]
    }, 
    {
      "op": "Activation", 
      "name": "encoder_birnn_forward_l0_t4_c", 
      "attrs": {"act_type": "tanh"}, 
      "inputs": [[84, 2, 0]]
    }, 
    {
      "op": "elemwise_mul", 
      "name": "_mul369", 
      "inputs": [[88, 0, 0], [89, 0, 0]]
    }, 
    {
      "op": "elemwise_add", 
      "name": "encoder_birnn_forward_l0_t4_state", 
      "inputs": [[87, 0, 0], [90, 0, 0]]
    }, 
    {
      "op": "Activation", 
      "name": "activation184", 
      "attrs": {"act_type": "tanh"}, 
      "inputs": [[91, 0, 0]]
    }, 
    {
      "op": "elemwise_mul", 
      "name": "encoder_birnn_forward_l0_t4_out", 
      "inputs": [[85, 0, 0], [92, 0, 0]]
    }, 
    {
      "op": "expand_dims", 
      "name": "expand_dims247", 
      "attrs": {"axis": "0"}, 
      "inputs": [[93, 0, 0]]
    }, 
    {
      "op": "FullyConnected", 
      "name": "encoder_birnn_forward_l0_t5_i2h", 
      "attrs": {"num_hidden": "1024"}, 
      "inputs": [[18, 5, 0], [19, 0, 0], [20, 0, 0]]
    }, 
    {
      "op": "FullyConnected", 
      "name": "encoder_birnn_forward_l0_t5_h2h", 
      "attrs": {"num_hidden": "1024"}, 
      "inputs": [[93, 0, 0], [23, 0, 0], [24, 0, 0]]
    }, 
    {
      "op": "elemwise_add", 
      "name": "_plus185", 
      "inputs": [[95, 0, 0], [96, 0, 0]]
    }, 
    {
      "op": "SliceChannel", 
      "name": "encoder_birnn_forward_l0_t5_slice", 
      "attrs": {"num_outputs": "4"}, 
      "inputs": [[97, 0, 0]]
    }, 
    {
      "op": "Activation", 
      "name": "encoder_birnn_forward_l0_t5_o", 
      "attrs": {"act_type": "sigmoid"}, 
      "inputs": [[98, 3, 0]]
    }, 
    {
      "op": "Activation", 
      "name": "encoder_birnn_forward_l0_t5_f", 
      "attrs": {"act_type": "sigmoid"}, 
      "inputs": [[98, 1, 0]]
    }, 
    {
      "op": "elemwise_mul", 
      "name": "_mul370", 
      "inputs": [[100, 0, 0], [91, 0, 0]]
    }, 
    {
      "op": "Activation", 
      "name": "encoder_birnn_forward_l0_t5_i", 
      "attrs": {"act_type": "sigmoid"}, 
      "inputs": [[98, 0, 0]]
    }, 
    {
      "op": "Activation", 
      "name": "encoder_birnn_forward_l0_t5_c", 
      "attrs": {"act_type": "tanh"}, 
      "inputs": [[98, 2, 0]]
    }, 
    {
      "op": "elemwise_mul", 
      "name": "_mul371", 
      "inputs": [[102, 0, 0], [103, 0, 0]]
    }, 
    {
      "op": "elemwise_add", 
      "name": "encoder_birnn_forward_l0_t5_state", 
      "inputs": [[101, 0, 0], [104, 0, 0]]
    }, 
    {
      "op": "Activation", 
      "name": "activation185", 
      "attrs": {"act_type": "tanh"}, 
      "inputs": [[105, 0, 0]]
    }, 
    {
      "op": "elemwise_mul", 
      "name": "encoder_birnn_forward_l0_t5_out", 
      "inputs": [[99, 0, 0], [106, 0, 0]]
    }, 
    {
      "op": "expand_dims", 
      "name": "expand_dims248", 
      "attrs": {"axis": "0"}, 
      "inputs": [[107, 0, 0]]
    }, 
    {
      "op": "FullyConnected", 
      "name": "encoder_birnn_forward_l0_t6_i2h", 
      "attrs": {"num_hidden": "1024"}, 
      "inputs": [[18, 6, 0], [19, 0, 0], [20, 0, 0]]
    }, 
    {
      "op": "FullyConnected", 
      "name": "encoder_birnn_forward_l0_t6_h2h", 
      "attrs": {"num_hidden": "1024"}, 
      "inputs": [[107, 0, 0], [23, 0, 0], [24, 0, 0]]
    }, 
    {
      "op": "elemwise_add", 
      "name": "_plus186", 
      "inputs": [[109, 0, 0], [110, 0, 0]]
    }, 
    {
      "op": "SliceChannel", 
      "name": "encoder_birnn_forward_l0_t6_slice", 
      "attrs": {"num_outputs": "4"}, 
      "inputs": [[111, 0, 0]]
    }, 
    {
      "op": "Activation", 
      "name": "encoder_birnn_forward_l0_t6_o", 
      "attrs": {"act_type": "sigmoid"}, 
      "inputs": [[112, 3, 0]]
    }, 
    {
      "op": "Activation", 
      "name": "encoder_birnn_forward_l0_t6_f", 
      "attrs": {"act_type": "sigmoid"}, 
      "inputs": [[112, 1, 0]]
    }, 
    {
      "op": "elemwise_mul", 
      "name": "_mul372", 
      "inputs": [[114, 0, 0], [105, 0, 0]]
    }, 
    {
      "op": "Activation", 
      "name": "encoder_birnn_forward_l0_t6_i", 
      "attrs": {"act_type": "sigmoid"}, 
      "inputs": [[112, 0, 0]]
    }, 
    {
      "op": "Activation", 
      "name": "encoder_birnn_forward_l0_t6_c", 
      "attrs": {"act_type": "tanh"}, 
      "inputs": [[112, 2, 0]]
    }, 
    {
      "op": "elemwise_mul", 
      "name": "_mul373", 
      "inputs": [[116, 0, 0], [117, 0, 0]]
    }, 
    {
      "op": "elemwise_add", 
      "name": "encoder_birnn_forward_l0_t6_state", 
      "inputs": [[115, 0, 0], [118, 0, 0]]
    }, 
    {
      "op": "Activation", 
      "name": "activation186", 
      "attrs": {"act_type": "tanh"}, 
      "inputs": [[119, 0, 0]]
    }, 
    {
      "op": "elemwise_mul", 
      "name": "encoder_birnn_forward_l0_t6_out", 
      "inputs": [[113, 0, 0], [120, 0, 0]]
    }, 
    {
      "op": "expand_dims", 
      "name": "expand_dims249", 
      "attrs": {"axis": "0"}, 
      "inputs": [[121, 0, 0]]
    }, 
    {
      "op": "FullyConnected", 
      "name": "encoder_birnn_forward_l0_t7_i2h", 
      "attrs": {"num_hidden": "1024"}, 
      "inputs": [[18, 7, 0], [19, 0, 0], [20, 0, 0]]
    }, 
    {
      "op": "FullyConnected", 
      "name": "encoder_birnn_forward_l0_t7_h2h", 
      "attrs": {"num_hidden": "1024"}, 
      "inputs": [[121, 0, 0], [23, 0, 0], [24, 0, 0]]
    }, 
    {
      "op": "elemwise_add", 
      "name": "_plus187", 
      "inputs": [[123, 0, 0], [124, 0, 0]]
    }, 
    {
      "op": "SliceChannel", 
      "name": "encoder_birnn_forward_l0_t7_slice", 
      "attrs": {"num_outputs": "4"}, 
      "inputs": [[125, 0, 0]]
    }, 
    {
      "op": "Activation", 
      "name": "encoder_birnn_forward_l0_t7_o", 
      "attrs": {"act_type": "sigmoid"}, 
      "inputs": [[126, 3, 0]]
    }, 
    {
      "op": "Activation", 
      "name": "encoder_birnn_forward_l0_t7_f", 
      "attrs": {"act_type": "sigmoid"}, 
      "inputs": [[126, 1, 0]]
    }, 
    {
      "op": "elemwise_mul", 
      "name": "_mul374", 
      "inputs": [[128, 0, 0], [119, 0, 0]]
    }, 
    {
      "op": "Activation", 
      "name": "encoder_birnn_forward_l0_t7_i", 
      "attrs": {"act_type": "sigmoid"}, 
      "inputs": [[126, 0, 0]]
    }, 
    {
      "op": "Activation", 
      "name": "encoder_birnn_forward_l0_t7_c", 
      "attrs": {"act_type": "tanh"}, 
      "inputs": [[126, 2, 0]]
    }, 
    {
      "op": "elemwise_mul", 
      "name": "_mul375", 
      "inputs": [[130, 0, 0], [131, 0, 0]]
    }, 
    {
      "op": "elemwise_add", 
      "name": "encoder_birnn_forward_l0_t7_state", 
      "inputs": [[129, 0, 0], [132, 0, 0]]
    }, 
    {
      "op": "Activation", 
      "name": "activation187", 
      "attrs": {"act_type": "tanh"}, 
      "inputs": [[133, 0, 0]]
    }, 
    {
      "op": "elemwise_mul", 
      "name": "encoder_birnn_forward_l0_t7_out", 
      "inputs": [[127, 0, 0], [134, 0, 0]]
    }, 
    {
      "op": "expand_dims", 
      "name": "expand_dims250", 
      "attrs": {"axis": "0"}, 
      "inputs": [[135, 0, 0]]
    }, 
    {
      "op": "FullyConnected", 
      "name": "encoder_birnn_forward_l0_t8_i2h", 
      "attrs": {"num_hidden": "1024"}, 
      "inputs": [[18, 8, 0], [19, 0, 0], [20, 0, 0]]
    }, 
    {
      "op": "FullyConnected", 
      "name": "encoder_birnn_forward_l0_t8_h2h", 
      "attrs": {"num_hidden": "1024"}, 
      "inputs": [[135, 0, 0], [23, 0, 0], [24, 0, 0]]
    }, 
    {
      "op": "elemwise_add", 
      "name": "_plus188", 
      "inputs": [[137, 0, 0], [138, 0, 0]]
    }, 
    {
      "op": "SliceChannel", 
      "name": "encoder_birnn_forward_l0_t8_slice", 
      "attrs": {"num_outputs": "4"}, 
      "inputs": [[139, 0, 0]]
    }, 
    {
      "op": "Activation", 
      "name": "encoder_birnn_forward_l0_t8_o", 
      "attrs": {"act_type": "sigmoid"}, 
      "inputs": [[140, 3, 0]]
    }, 
    {
      "op": "Activation", 
      "name": "encoder_birnn_forward_l0_t8_f", 
      "attrs": {"act_type": "sigmoid"}, 
      "inputs": [[140, 1, 0]]
    }, 
    {
      "op": "elemwise_mul", 
      "name": "_mul376", 
      "inputs": [[142, 0, 0], [133, 0, 0]]
    }, 
    {
      "op": "Activation", 
      "name": "encoder_birnn_forward_l0_t8_i", 
      "attrs": {"act_type": "sigmoid"}, 
      "inputs": [[140, 0, 0]]
    }, 
    {
      "op": "Activation", 
      "name": "encoder_birnn_forward_l0_t8_c", 
      "attrs": {"act_type": "tanh"}, 
      "inputs": [[140, 2, 0]]
    }, 
    {
      "op": "elemwise_mul", 
      "name": "_mul377", 
      "inputs": [[144, 0, 0], [145, 0, 0]]
    }, 
    {
      "op": "elemwise_add", 
      "name": "encoder_birnn_forward_l0_t8_state", 
      "inputs": [[143, 0, 0], [146, 0, 0]]
    }, 
    {
      "op": "Activation", 
      "name": "activation188", 
      "attrs": {"act_type": "tanh"}, 
      "inputs": [[147, 0, 0]]
    }, 
    {
      "op": "elemwise_mul", 
      "name": "encoder_birnn_forward_l0_t8_out", 
      "inputs": [[141, 0, 0], [148, 0, 0]]
    }, 
    {
      "op": "expand_dims", 
      "name": "expand_dims251", 
      "attrs": {"axis": "0"}, 
      "inputs": [[149, 0, 0]]
    }, 
    {
      "op": "FullyConnected", 
      "name": "encoder_birnn_forward_l0_t9_i2h", 
      "attrs": {"num_hidden": "1024"}, 
      "inputs": [[18, 9, 0], [19, 0, 0], [20, 0, 0]]
    }, 
    {
      "op": "FullyConnected", 
      "name": "encoder_birnn_forward_l0_t9_h2h", 
      "attrs": {"num_hidden": "1024"}, 
      "inputs": [[149, 0, 0], [23, 0, 0], [24, 0, 0]]
    }, 
    {
      "op": "elemwise_add", 
      "name": "_plus189", 
      "inputs": [[151, 0, 0], [152, 0, 0]]
    }, 
    {
      "op": "SliceChannel", 
      "name": "encoder_birnn_forward_l0_t9_slice", 
      "attrs": {"num_outputs": "4"}, 
      "inputs": [[153, 0, 0]]
    }, 
    {
      "op": "Activation", 
      "name": "encoder_birnn_forward_l0_t9_o", 
      "attrs": {"act_type": "sigmoid"}, 
      "inputs": [[154, 3, 0]]
    }, 
    {
      "op": "Activation", 
      "name": "encoder_birnn_forward_l0_t9_f", 
      "attrs": {"act_type": "sigmoid"}, 
      "inputs": [[154, 1, 0]]
    }, 
    {
      "op": "elemwise_mul", 
      "name": "_mul378", 
      "inputs": [[156, 0, 0], [147, 0, 0]]
    }, 
    {
      "op": "Activation", 
      "name": "encoder_birnn_forward_l0_t9_i", 
      "attrs": {"act_type": "sigmoid"}, 
      "inputs": [[154, 0, 0]]
    }, 
    {
      "op": "Activation", 
      "name": "encoder_birnn_forward_l0_t9_c", 
      "attrs": {"act_type": "tanh"}, 
      "inputs": [[154, 2, 0]]
    }, 
    {
      "op": "elemwise_mul", 
      "name": "_mul379", 
      "inputs": [[158, 0, 0], [159, 0, 0]]
    }, 
    {
      "op": "elemwise_add", 
      "name": "encoder_birnn_forward_l0_t9_state", 
      "inputs": [[157, 0, 0], [160, 0, 0]]
    }, 
    {
      "op": "Activation", 
      "name": "activation189", 
      "attrs": {"act_type": "tanh"}, 
      "inputs": [[161, 0, 0]]
    }, 
    {
      "op": "elemwise_mul", 
      "name": "encoder_birnn_forward_l0_t9_out", 
      "inputs": [[155, 0, 0], [162, 0, 0]]
    }, 
    {
      "op": "expand_dims", 
      "name": "expand_dims252", 
      "attrs": {"axis": "0"}, 
      "inputs": [[163, 0, 0]]
    }, 
    {
      "op": "FullyConnected", 
      "name": "encoder_birnn_forward_l0_t10_i2h", 
      "attrs": {"num_hidden": "1024"}, 
      "inputs": [[18, 10, 0], [19, 0, 0], [20, 0, 0]]
    }, 
    {
      "op": "FullyConnected", 
      "name": "encoder_birnn_forward_l0_t10_h2h", 
      "attrs": {"num_hidden": "1024"}, 
      "inputs": [[163, 0, 0], [23, 0, 0], [24, 0, 0]]
    }, 
    {
      "op": "elemwise_add", 
      "name": "_plus190", 
      "inputs": [[165, 0, 0], [166, 0, 0]]
    }, 
    {
      "op": "SliceChannel", 
      "name": "encoder_birnn_forward_l0_t10_slice", 
      "attrs": {"num_outputs": "4"}, 
      "inputs": [[167, 0, 0]]
    }, 
    {
      "op": "Activation", 
      "name": "encoder_birnn_forward_l0_t10_o", 
      "attrs": {"act_type": "sigmoid"}, 
      "inputs": [[168, 3, 0]]
    }, 
    {
      "op": "Activation", 
      "name": "encoder_birnn_forward_l0_t10_f", 
      "attrs": {"act_type": "sigmoid"}, 
      "inputs": [[168, 1, 0]]
    }, 
    {
      "op": "elemwise_mul", 
      "name": "_mul380", 
      "inputs": [[170, 0, 0], [161, 0, 0]]
    }, 
    {
      "op": "Activation", 
      "name": "encoder_birnn_forward_l0_t10_i", 
      "attrs": {"act_type": "sigmoid"}, 
      "inputs": [[168, 0, 0]]
    }, 
    {
      "op": "Activation", 
      "name": "encoder_birnn_forward_l0_t10_c", 
      "attrs": {"act_type": "tanh"}, 
      "inputs": [[168, 2, 0]]
    }, 
    {
      "op": "elemwise_mul", 
      "name": "_mul381", 
      "inputs": [[172, 0, 0], [173, 0, 0]]
    }, 
    {
      "op": "elemwise_add", 
      "name": "encoder_birnn_forward_l0_t10_state", 
      "inputs": [[171, 0, 0], [174, 0, 0]]
    }, 
    {
      "op": "Activation", 
      "name": "activation190", 
      "attrs": {"act_type": "tanh"}, 
      "inputs": [[175, 0, 0]]
    }, 
    {
      "op": "elemwise_mul", 
      "name": "encoder_birnn_forward_l0_t10_out", 
      "inputs": [[169, 0, 0], [176, 0, 0]]
    }, 
    {
      "op": "expand_dims", 
      "name": "expand_dims253", 
      "attrs": {"axis": "0"}, 
      "inputs": [[177, 0, 0]]
    }, 
    {
      "op": "FullyConnected", 
      "name": "encoder_birnn_forward_l0_t11_i2h", 
      "attrs": {"num_hidden": "1024"}, 
      "inputs": [[18, 11, 0], [19, 0, 0], [20, 0, 0]]
    }, 
    {
      "op": "FullyConnected", 
      "name": "encoder_birnn_forward_l0_t11_h2h", 
      "attrs": {"num_hidden": "1024"}, 
      "inputs": [[177, 0, 0], [23, 0, 0], [24, 0, 0]]
    }, 
    {
      "op": "elemwise_add", 
      "name": "_plus191", 
      "inputs": [[179, 0, 0], [180, 0, 0]]
    }, 
    {
      "op": "SliceChannel", 
      "name": "encoder_birnn_forward_l0_t11_slice", 
      "attrs": {"num_outputs": "4"}, 
      "inputs": [[181, 0, 0]]
    }, 
    {
      "op": "Activation", 
      "name": "encoder_birnn_forward_l0_t11_o", 
      "attrs": {"act_type": "sigmoid"}, 
      "inputs": [[182, 3, 0]]
    }, 
    {
      "op": "Activation", 
      "name": "encoder_birnn_forward_l0_t11_f", 
      "attrs": {"act_type": "sigmoid"}, 
      "inputs": [[182, 1, 0]]
    }, 
    {
      "op": "elemwise_mul", 
      "name": "_mul382", 
      "inputs": [[184, 0, 0], [175, 0, 0]]
    }, 
    {
      "op": "Activation", 
      "name": "encoder_birnn_forward_l0_t11_i", 
      "attrs": {"act_type": "sigmoid"}, 
      "inputs": [[182, 0, 0]]
    }, 
    {
      "op": "Activation", 
      "name": "encoder_birnn_forward_l0_t11_c", 
      "attrs": {"act_type": "tanh"}, 
      "inputs": [[182, 2, 0]]
    }, 
    {
      "op": "elemwise_mul", 
      "name": "_mul383", 
      "inputs": [[186, 0, 0], [187, 0, 0]]
    }, 
    {
      "op": "elemwise_add", 
      "name": "encoder_birnn_forward_l0_t11_state", 
      "inputs": [[185, 0, 0], [188, 0, 0]]
    }, 
    {
      "op": "Activation", 
      "name": "activation191", 
      "attrs": {"act_type": "tanh"}, 
      "inputs": [[189, 0, 0]]
    }, 
    {
      "op": "elemwise_mul", 
      "name": "encoder_birnn_forward_l0_t11_out", 
      "inputs": [[183, 0, 0], [190, 0, 0]]
    }, 
    {
      "op": "expand_dims", 
      "name": "expand_dims254", 
      "attrs": {"axis": "0"}, 
      "inputs": [[191, 0, 0]]
    }, 
    {
      "op": "FullyConnected", 
      "name": "encoder_birnn_forward_l0_t12_i2h", 
      "attrs": {"num_hidden": "1024"}, 
      "inputs": [[18, 12, 0], [19, 0, 0], [20, 0, 0]]
    }, 
    {
      "op": "FullyConnected", 
      "name": "encoder_birnn_forward_l0_t12_h2h", 
      "attrs": {"num_hidden": "1024"}, 
      "inputs": [[191, 0, 0], [23, 0, 0], [24, 0, 0]]
    }, 
    {
      "op": "elemwise_add", 
      "name": "_plus192", 
      "inputs": [[193, 0, 0], [194, 0, 0]]
    }, 
    {
      "op": "SliceChannel", 
      "name": "encoder_birnn_forward_l0_t12_slice", 
      "attrs": {"num_outputs": "4"}, 
      "inputs": [[195, 0, 0]]
    }, 
    {
      "op": "Activation", 
      "name": "encoder_birnn_forward_l0_t12_o", 
      "attrs": {"act_type": "sigmoid"}, 
      "inputs": [[196, 3, 0]]
    }, 
    {
      "op": "Activation", 
      "name": "encoder_birnn_forward_l0_t12_f", 
      "attrs": {"act_type": "sigmoid"}, 
      "inputs": [[196, 1, 0]]
    }, 
    {
      "op": "elemwise_mul", 
      "name": "_mul384", 
      "inputs": [[198, 0, 0], [189, 0, 0]]
    }, 
    {
      "op": "Activation", 
      "name": "encoder_birnn_forward_l0_t12_i", 
      "attrs": {"act_type": "sigmoid"}, 
      "inputs": [[196, 0, 0]]
    }, 
    {
      "op": "Activation", 
      "name": "encoder_birnn_forward_l0_t12_c", 
      "attrs": {"act_type": "tanh"}, 
      "inputs": [[196, 2, 0]]
    }, 
    {
      "op": "elemwise_mul", 
      "name": "_mul385", 
      "inputs": [[200, 0, 0], [201, 0, 0]]
    }, 
    {
      "op": "elemwise_add", 
      "name": "encoder_birnn_forward_l0_t12_state", 
      "inputs": [[199, 0, 0], [202, 0, 0]]
    }, 
    {
      "op": "Activation", 
      "name": "activation192", 
      "attrs": {"act_type": "tanh"}, 
      "inputs": [[203, 0, 0]]
    }, 
    {
      "op": "elemwise_mul", 
      "name": "encoder_birnn_forward_l0_t12_out", 
      "inputs": [[197, 0, 0], [204, 0, 0]]
    }, 
    {
      "op": "expand_dims", 
      "name": "expand_dims255", 
      "attrs": {"axis": "0"}, 
      "inputs": [[205, 0, 0]]
    }, 
    {
      "op": "FullyConnected", 
      "name": "encoder_birnn_forward_l0_t13_i2h", 
      "attrs": {"num_hidden": "1024"}, 
      "inputs": [[18, 13, 0], [19, 0, 0], [20, 0, 0]]
    }, 
    {
      "op": "FullyConnected", 
      "name": "encoder_birnn_forward_l0_t13_h2h", 
      "attrs": {"num_hidden": "1024"}, 
      "inputs": [[205, 0, 0], [23, 0, 0], [24, 0, 0]]
    }, 
    {
      "op": "elemwise_add", 
      "name": "_plus193", 
      "inputs": [[207, 0, 0], [208, 0, 0]]
    }, 
    {
      "op": "SliceChannel", 
      "name": "encoder_birnn_forward_l0_t13_slice", 
      "attrs": {"num_outputs": "4"}, 
      "inputs": [[209, 0, 0]]
    }, 
    {
      "op": "Activation", 
      "name": "encoder_birnn_forward_l0_t13_o", 
      "attrs": {"act_type": "sigmoid"}, 
      "inputs": [[210, 3, 0]]
    }, 
    {
      "op": "Activation", 
      "name": "encoder_birnn_forward_l0_t13_f", 
      "attrs": {"act_type": "sigmoid"}, 
      "inputs": [[210, 1, 0]]
    }, 
    {
      "op": "elemwise_mul", 
      "name": "_mul386", 
      "inputs": [[212, 0, 0], [203, 0, 0]]
    }, 
    {
      "op": "Activation", 
      "name": "encoder_birnn_forward_l0_t13_i", 
      "attrs": {"act_type": "sigmoid"}, 
      "inputs": [[210, 0, 0]]
    }, 
    {
      "op": "Activation", 
      "name": "encoder_birnn_forward_l0_t13_c", 
      "attrs": {"act_type": "tanh"}, 
      "inputs": [[210, 2, 0]]
    }, 
    {
      "op": "elemwise_mul", 
      "name": "_mul387", 
      "inputs": [[214, 0, 0], [215, 0, 0]]
    }, 
    {
      "op": "elemwise_add", 
      "name": "encoder_birnn_forward_l0_t13_state", 
      "inputs": [[213, 0, 0], [216, 0, 0]]
    }, 
    {
      "op": "Activation", 
      "name": "activation193", 
      "attrs": {"act_type": "tanh"}, 
      "inputs": [[217, 0, 0]]
    }, 
    {
      "op": "elemwise_mul", 
      "name": "encoder_birnn_forward_l0_t13_out", 
      "inputs": [[211, 0, 0], [218, 0, 0]]
    }, 
    {
      "op": "expand_dims", 
      "name": "expand_dims256", 
      "attrs": {"axis": "0"}, 
      "inputs": [[219, 0, 0]]
    }, 
    {
      "op": "FullyConnected", 
      "name": "encoder_birnn_forward_l0_t14_i2h", 
      "attrs": {"num_hidden": "1024"}, 
      "inputs": [[18, 14, 0], [19, 0, 0], [20, 0, 0]]
    }, 
    {
      "op": "FullyConnected", 
      "name": "encoder_birnn_forward_l0_t14_h2h", 
      "attrs": {"num_hidden": "1024"}, 
      "inputs": [[219, 0, 0], [23, 0, 0], [24, 0, 0]]
    }, 
    {
      "op": "elemwise_add", 
      "name": "_plus194", 
      "inputs": [[221, 0, 0], [222, 0, 0]]
    }, 
    {
      "op": "SliceChannel", 
      "name": "encoder_birnn_forward_l0_t14_slice", 
      "attrs": {"num_outputs": "4"}, 
      "inputs": [[223, 0, 0]]
    }, 
    {
      "op": "Activation", 
      "name": "encoder_birnn_forward_l0_t14_o", 
      "attrs": {"act_type": "sigmoid"}, 
      "inputs": [[224, 3, 0]]
    }, 
    {
      "op": "Activation", 
      "name": "encoder_birnn_forward_l0_t14_f", 
      "attrs": {"act_type": "sigmoid"}, 
      "inputs": [[224, 1, 0]]
    }, 
    {
      "op": "elemwise_mul", 
      "name": "_mul388", 
      "inputs": [[226, 0, 0], [217, 0, 0]]
    }, 
    {
      "op": "Activation", 
      "name": "encoder_birnn_forward_l0_t14_i", 
      "attrs": {"act_type": "sigmoid"}, 
      "inputs": [[224, 0, 0]]
    }, 
    {
      "op": "Activation", 
      "name": "encoder_birnn_forward_l0_t14_c", 
      "attrs": {"act_type": "tanh"}, 
      "inputs": [[224, 2, 0]]
    }, 
    {
      "op": "elemwise_mul", 
      "name": "_mul389", 
      "inputs": [[228, 0, 0], [229, 0, 0]]
    }, 
    {
      "op": "elemwise_add", 
      "name": "encoder_birnn_forward_l0_t14_state", 
      "inputs": [[227, 0, 0], [230, 0, 0]]
    }, 
    {
      "op": "Activation", 
      "name": "activation194", 
      "attrs": {"act_type": "tanh"}, 
      "inputs": [[231, 0, 0]]
    }, 
    {
      "op": "elemwise_mul", 
      "name": "encoder_birnn_forward_l0_t14_out", 
      "inputs": [[225, 0, 0], [232, 0, 0]]
    }, 
    {
      "op": "expand_dims", 
      "name": "expand_dims257", 
      "attrs": {"axis": "0"}, 
      "inputs": [[233, 0, 0]]
    }, 
    {
      "op": "FullyConnected", 
      "name": "encoder_birnn_forward_l0_t15_i2h", 
      "attrs": {"num_hidden": "1024"}, 
      "inputs": [[18, 15, 0], [19, 0, 0], [20, 0, 0]]
    }, 
    {
      "op": "FullyConnected", 
      "name": "encoder_birnn_forward_l0_t15_h2h", 
      "attrs": {"num_hidden": "1024"}, 
      "inputs": [[233, 0, 0], [23, 0, 0], [24, 0, 0]]
    }, 
    {
      "op": "elemwise_add", 
      "name": "_plus195", 
      "inputs": [[235, 0, 0], [236, 0, 0]]
    }, 
    {
      "op": "SliceChannel", 
      "name": "encoder_birnn_forward_l0_t15_slice", 
      "attrs": {"num_outputs": "4"}, 
      "inputs": [[237, 0, 0]]
    }, 
    {
      "op": "Activation", 
      "name": "encoder_birnn_forward_l0_t15_o", 
      "attrs": {"act_type": "sigmoid"}, 
      "inputs": [[238, 3, 0]]
    }, 
    {
      "op": "Activation", 
      "name": "encoder_birnn_forward_l0_t15_f", 
      "attrs": {"act_type": "sigmoid"}, 
      "inputs": [[238, 1, 0]]
    }, 
    {
      "op": "elemwise_mul", 
      "name": "_mul390", 
      "inputs": [[240, 0, 0], [231, 0, 0]]
    }, 
    {
      "op": "Activation", 
      "name": "encoder_birnn_forward_l0_t15_i", 
      "attrs": {"act_type": "sigmoid"}, 
      "inputs": [[238, 0, 0]]
    }, 
    {
      "op": "Activation", 
      "name": "encoder_birnn_forward_l0_t15_c", 
      "attrs": {"act_type": "tanh"}, 
      "inputs": [[238, 2, 0]]
    }, 
    {
      "op": "elemwise_mul", 
      "name": "_mul391", 
      "inputs": [[242, 0, 0], [243, 0, 0]]
    }, 
    {
      "op": "elemwise_add", 
      "name": "encoder_birnn_forward_l0_t15_state", 
      "inputs": [[241, 0, 0], [244, 0, 0]]
    }, 
    {
      "op": "Activation", 
      "name": "activation195", 
      "attrs": {"act_type": "tanh"}, 
      "inputs": [[245, 0, 0]]
    }, 
    {
      "op": "elemwise_mul", 
      "name": "encoder_birnn_forward_l0_t15_out", 
      "inputs": [[239, 0, 0], [246, 0, 0]]
    }, 
    {
      "op": "expand_dims", 
      "name": "expand_dims258", 
      "attrs": {"axis": "0"}, 
      "inputs": [[247, 0, 0]]
    }, 
    {
      "op": "FullyConnected", 
      "name": "encoder_birnn_forward_l0_t16_i2h", 
      "attrs": {"num_hidden": "1024"}, 
      "inputs": [[18, 16, 0], [19, 0, 0], [20, 0, 0]]
    }, 
    {
      "op": "FullyConnected", 
      "name": "encoder_birnn_forward_l0_t16_h2h", 
      "attrs": {"num_hidden": "1024"}, 
      "inputs": [[247, 0, 0], [23, 0, 0], [24, 0, 0]]
    }, 
    {
      "op": "elemwise_add", 
      "name": "_plus196", 
      "inputs": [[249, 0, 0], [250, 0, 0]]
    }, 
    {
      "op": "SliceChannel", 
      "name": "encoder_birnn_forward_l0_t16_slice", 
      "attrs": {"num_outputs": "4"}, 
      "inputs": [[251, 0, 0]]
    }, 
    {
      "op": "Activation", 
      "name": "encoder_birnn_forward_l0_t16_o", 
      "attrs": {"act_type": "sigmoid"}, 
      "inputs": [[252, 3, 0]]
    }, 
    {
      "op": "Activation", 
      "name": "encoder_birnn_forward_l0_t16_f", 
      "attrs": {"act_type": "sigmoid"}, 
      "inputs": [[252, 1, 0]]
    }, 
    {
      "op": "elemwise_mul", 
      "name": "_mul392", 
      "inputs": [[254, 0, 0], [245, 0, 0]]
    }, 
    {
      "op": "Activation", 
      "name": "encoder_birnn_forward_l0_t16_i", 
      "attrs": {"act_type": "sigmoid"}, 
      "inputs": [[252, 0, 0]]
    }, 
    {
      "op": "Activation", 
      "name": "encoder_birnn_forward_l0_t16_c", 
      "attrs": {"act_type": "tanh"}, 
      "inputs": [[252, 2, 0]]
    }, 
    {
      "op": "elemwise_mul", 
      "name": "_mul393", 
      "inputs": [[256, 0, 0], [257, 0, 0]]
    }, 
    {
      "op": "elemwise_add", 
      "name": "encoder_birnn_forward_l0_t16_state", 
      "inputs": [[255, 0, 0], [258, 0, 0]]
    }, 
    {
      "op": "Activation", 
      "name": "activation196", 
      "attrs": {"act_type": "tanh"}, 
      "inputs": [[259, 0, 0]]
    }, 
    {
      "op": "elemwise_mul", 
      "name": "encoder_birnn_forward_l0_t16_out", 
      "inputs": [[253, 0, 0], [260, 0, 0]]
    }, 
    {
      "op": "expand_dims", 
      "name": "expand_dims259", 
      "attrs": {"axis": "0"}, 
      "inputs": [[261, 0, 0]]
    }, 
    {
      "op": "FullyConnected", 
      "name": "encoder_birnn_forward_l0_t17_i2h", 
      "attrs": {"num_hidden": "1024"}, 
      "inputs": [[18, 17, 0], [19, 0, 0], [20, 0, 0]]
    }, 
    {
      "op": "FullyConnected", 
      "name": "encoder_birnn_forward_l0_t17_h2h", 
      "attrs": {"num_hidden": "1024"}, 
      "inputs": [[261, 0, 0], [23, 0, 0], [24, 0, 0]]
    }, 
    {
      "op": "elemwise_add", 
      "name": "_plus197", 
      "inputs": [[263, 0, 0], [264, 0, 0]]
    }, 
    {
      "op": "SliceChannel", 
      "name": "encoder_birnn_forward_l0_t17_slice", 
      "attrs": {"num_outputs": "4"}, 
      "inputs": [[265, 0, 0]]
    }, 
    {
      "op": "Activation", 
      "name": "encoder_birnn_forward_l0_t17_o", 
      "attrs": {"act_type": "sigmoid"}, 
      "inputs": [[266, 3, 0]]
    }, 
    {
      "op": "Activation", 
      "name": "encoder_birnn_forward_l0_t17_f", 
      "attrs": {"act_type": "sigmoid"}, 
      "inputs": [[266, 1, 0]]
    }, 
    {
      "op": "elemwise_mul", 
      "name": "_mul394", 
      "inputs": [[268, 0, 0], [259, 0, 0]]
    }, 
    {
      "op": "Activation", 
      "name": "encoder_birnn_forward_l0_t17_i", 
      "attrs": {"act_type": "sigmoid"}, 
      "inputs": [[266, 0, 0]]
    }, 
    {
      "op": "Activation", 
      "name": "encoder_birnn_forward_l0_t17_c", 
      "attrs": {"act_type": "tanh"}, 
      "inputs": [[266, 2, 0]]
    }, 
    {
      "op": "elemwise_mul", 
      "name": "_mul395", 
      "inputs": [[270, 0, 0], [271, 0, 0]]
    }, 
    {
      "op": "elemwise_add", 
      "name": "encoder_birnn_forward_l0_t17_state", 
      "inputs": [[269, 0, 0], [272, 0, 0]]
    }, 
    {
      "op": "Activation", 
      "name": "activation197", 
      "attrs": {"act_type": "tanh"}, 
      "inputs": [[273, 0, 0]]
    }, 
    {
      "op": "elemwise_mul", 
      "name": "encoder_birnn_forward_l0_t17_out", 
      "inputs": [[267, 0, 0], [274, 0, 0]]
    }, 
    {
      "op": "expand_dims", 
      "name": "expand_dims260", 
      "attrs": {"axis": "0"}, 
      "inputs": [[275, 0, 0]]
    }, 
    {
      "op": "FullyConnected", 
      "name": "encoder_birnn_forward_l0_t18_i2h", 
      "attrs": {"num_hidden": "1024"}, 
      "inputs": [[18, 18, 0], [19, 0, 0], [20, 0, 0]]
    }, 
    {
      "op": "FullyConnected", 
      "name": "encoder_birnn_forward_l0_t18_h2h", 
      "attrs": {"num_hidden": "1024"}, 
      "inputs": [[275, 0, 0], [23, 0, 0], [24, 0, 0]]
    }, 
    {
      "op": "elemwise_add", 
      "name": "_plus198", 
      "inputs": [[277, 0, 0], [278, 0, 0]]
    }, 
    {
      "op": "SliceChannel", 
      "name": "encoder_birnn_forward_l0_t18_slice", 
      "attrs": {"num_outputs": "4"}, 
      "inputs": [[279, 0, 0]]
    }, 
    {
      "op": "Activation", 
      "name": "encoder_birnn_forward_l0_t18_o", 
      "attrs": {"act_type": "sigmoid"}, 
      "inputs": [[280, 3, 0]]
    }, 
    {
      "op": "Activation", 
      "name": "encoder_birnn_forward_l0_t18_f", 
      "attrs": {"act_type": "sigmoid"}, 
      "inputs": [[280, 1, 0]]
    }, 
    {
      "op": "elemwise_mul", 
      "name": "_mul396", 
      "inputs": [[282, 0, 0], [273, 0, 0]]
    }, 
    {
      "op": "Activation", 
      "name": "encoder_birnn_forward_l0_t18_i", 
      "attrs": {"act_type": "sigmoid"}, 
      "inputs": [[280, 0, 0]]
    }, 
    {
      "op": "Activation", 
      "name": "encoder_birnn_forward_l0_t18_c", 
      "attrs": {"act_type": "tanh"}, 
      "inputs": [[280, 2, 0]]
    }, 
    {
      "op": "elemwise_mul", 
      "name": "_mul397", 
      "inputs": [[284, 0, 0], [285, 0, 0]]
    }, 
    {
      "op": "elemwise_add", 
      "name": "encoder_birnn_forward_l0_t18_state", 
      "inputs": [[283, 0, 0], [286, 0, 0]]
    }, 
    {
      "op": "Activation", 
      "name": "activation198", 
      "attrs": {"act_type": "tanh"}, 
      "inputs": [[287, 0, 0]]
    }, 
    {
      "op": "elemwise_mul", 
      "name": "encoder_birnn_forward_l0_t18_out", 
      "inputs": [[281, 0, 0], [288, 0, 0]]
    }, 
    {
      "op": "expand_dims", 
      "name": "expand_dims261", 
      "attrs": {"axis": "0"}, 
      "inputs": [[289, 0, 0]]
    }, 
    {
      "op": "FullyConnected", 
      "name": "encoder_birnn_forward_l0_t19_i2h", 
      "attrs": {"num_hidden": "1024"}, 
      "inputs": [[18, 19, 0], [19, 0, 0], [20, 0, 0]]
    }, 
    {
      "op": "FullyConnected", 
      "name": "encoder_birnn_forward_l0_t19_h2h", 
      "attrs": {"num_hidden": "1024"}, 
      "inputs": [[289, 0, 0], [23, 0, 0], [24, 0, 0]]
    }, 
    {
      "op": "elemwise_add", 
      "name": "_plus199", 
      "inputs": [[291, 0, 0], [292, 0, 0]]
    }, 
    {
      "op": "SliceChannel", 
      "name": "encoder_birnn_forward_l0_t19_slice", 
      "attrs": {"num_outputs": "4"}, 
      "inputs": [[293, 0, 0]]
    }, 
    {
      "op": "Activation", 
      "name": "encoder_birnn_forward_l0_t19_o", 
      "attrs": {"act_type": "sigmoid"}, 
      "inputs": [[294, 3, 0]]
    }, 
    {
      "op": "Activation", 
      "name": "encoder_birnn_forward_l0_t19_f", 
      "attrs": {"act_type": "sigmoid"}, 
      "inputs": [[294, 1, 0]]
    }, 
    {
      "op": "elemwise_mul", 
      "name": "_mul398", 
      "inputs": [[296, 0, 0], [287, 0, 0]]
    }, 
    {
      "op": "Activation", 
      "name": "encoder_birnn_forward_l0_t19_i", 
      "attrs": {"act_type": "sigmoid"}, 
      "inputs": [[294, 0, 0]]
    }, 
    {
      "op": "Activation", 
      "name": "encoder_birnn_forward_l0_t19_c", 
      "attrs": {"act_type": "tanh"}, 
      "inputs": [[294, 2, 0]]
    }, 
    {
      "op": "elemwise_mul", 
      "name": "_mul399", 
      "inputs": [[298, 0, 0], [299, 0, 0]]
    }, 
    {
      "op": "elemwise_add", 
      "name": "encoder_birnn_forward_l0_t19_state", 
      "inputs": [[297, 0, 0], [300, 0, 0]]
    }, 
    {
      "op": "Activation", 
      "name": "activation199", 
      "attrs": {"act_type": "tanh"}, 
      "inputs": [[301, 0, 0]]
    }, 
    {
      "op": "elemwise_mul", 
      "name": "encoder_birnn_forward_l0_t19_out", 
      "inputs": [[295, 0, 0], [302, 0, 0]]
    }, 
    {
      "op": "expand_dims", 
      "name": "expand_dims262", 
      "attrs": {"axis": "0"}, 
      "inputs": [[303, 0, 0]]
    }, 
    {
      "op": "FullyConnected", 
      "name": "encoder_birnn_forward_l0_t20_i2h", 
      "attrs": {"num_hidden": "1024"}, 
      "inputs": [[18, 20, 0], [19, 0, 0], [20, 0, 0]]
    }, 
    {
      "op": "FullyConnected", 
      "name": "encoder_birnn_forward_l0_t20_h2h", 
      "attrs": {"num_hidden": "1024"}, 
      "inputs": [[303, 0, 0], [23, 0, 0], [24, 0, 0]]
    }, 
    {
      "op": "elemwise_add", 
      "name": "_plus200", 
      "inputs": [[305, 0, 0], [306, 0, 0]]
    }, 
    {
      "op": "SliceChannel", 
      "name": "encoder_birnn_forward_l0_t20_slice", 
      "attrs": {"num_outputs": "4"}, 
      "inputs": [[307, 0, 0]]
    }, 
    {
      "op": "Activation", 
      "name": "encoder_birnn_forward_l0_t20_o", 
      "attrs": {"act_type": "sigmoid"}, 
      "inputs": [[308, 3, 0]]
    }, 
    {
      "op": "Activation", 
      "name": "encoder_birnn_forward_l0_t20_f", 
      "attrs": {"act_type": "sigmoid"}, 
      "inputs": [[308, 1, 0]]
    }, 
    {
      "op": "elemwise_mul", 
      "name": "_mul400", 
      "inputs": [[310, 0, 0], [301, 0, 0]]
    }, 
    {
      "op": "Activation", 
      "name": "encoder_birnn_forward_l0_t20_i", 
      "attrs": {"act_type": "sigmoid"}, 
      "inputs": [[308, 0, 0]]
    }, 
    {
      "op": "Activation", 
      "name": "encoder_birnn_forward_l0_t20_c", 
      "attrs": {"act_type": "tanh"}, 
      "inputs": [[308, 2, 0]]
    }, 
    {
      "op": "elemwise_mul", 
      "name": "_mul401", 
      "inputs": [[312, 0, 0], [313, 0, 0]]
    }, 
    {
      "op": "elemwise_add", 
      "name": "encoder_birnn_forward_l0_t20_state", 
      "inputs": [[311, 0, 0], [314, 0, 0]]
    }, 
    {
      "op": "Activation", 
      "name": "activation200", 
      "attrs": {"act_type": "tanh"}, 
      "inputs": [[315, 0, 0]]
    }, 
    {
      "op": "elemwise_mul", 
      "name": "encoder_birnn_forward_l0_t20_out", 
      "inputs": [[309, 0, 0], [316, 0, 0]]
    }, 
    {
      "op": "expand_dims", 
      "name": "expand_dims263", 
      "attrs": {"axis": "0"}, 
      "inputs": [[317, 0, 0]]
    }, 
    {
      "op": "FullyConnected", 
      "name": "encoder_birnn_forward_l0_t21_i2h", 
      "attrs": {"num_hidden": "1024"}, 
      "inputs": [[18, 21, 0], [19, 0, 0], [20, 0, 0]]
    }, 
    {
      "op": "FullyConnected", 
      "name": "encoder_birnn_forward_l0_t21_h2h", 
      "attrs": {"num_hidden": "1024"}, 
      "inputs": [[317, 0, 0], [23, 0, 0], [24, 0, 0]]
    }, 
    {
      "op": "elemwise_add", 
      "name": "_plus201", 
      "inputs": [[319, 0, 0], [320, 0, 0]]
    }, 
    {
      "op": "SliceChannel", 
      "name": "encoder_birnn_forward_l0_t21_slice", 
      "attrs": {"num_outputs": "4"}, 
      "inputs": [[321, 0, 0]]
    }, 
    {
      "op": "Activation", 
      "name": "encoder_birnn_forward_l0_t21_o", 
      "attrs": {"act_type": "sigmoid"}, 
      "inputs": [[322, 3, 0]]
    }, 
    {
      "op": "Activation", 
      "name": "encoder_birnn_forward_l0_t21_f", 
      "attrs": {"act_type": "sigmoid"}, 
      "inputs": [[322, 1, 0]]
    }, 
    {
      "op": "elemwise_mul", 
      "name": "_mul402", 
      "inputs": [[324, 0, 0], [315, 0, 0]]
    }, 
    {
      "op": "Activation", 
      "name": "encoder_birnn_forward_l0_t21_i", 
      "attrs": {"act_type": "sigmoid"}, 
      "inputs": [[322, 0, 0]]
    }, 
    {
      "op": "Activation", 
      "name": "encoder_birnn_forward_l0_t21_c", 
      "attrs": {"act_type": "tanh"}, 
      "inputs": [[322, 2, 0]]
    }, 
    {
      "op": "elemwise_mul", 
      "name": "_mul403", 
      "inputs": [[326, 0, 0], [327, 0, 0]]
    }, 
    {
      "op": "elemwise_add", 
      "name": "encoder_birnn_forward_l0_t21_state", 
      "inputs": [[325, 0, 0], [328, 0, 0]]
    }, 
    {
      "op": "Activation", 
      "name": "activation201", 
      "attrs": {"act_type": "tanh"}, 
      "inputs": [[329, 0, 0]]
    }, 
    {
      "op": "elemwise_mul", 
      "name": "encoder_birnn_forward_l0_t21_out", 
      "inputs": [[323, 0, 0], [330, 0, 0]]
    }, 
    {
      "op": "expand_dims", 
      "name": "expand_dims264", 
      "attrs": {"axis": "0"}, 
      "inputs": [[331, 0, 0]]
    }, 
    {
      "op": "FullyConnected", 
      "name": "encoder_birnn_forward_l0_t22_i2h", 
      "attrs": {"num_hidden": "1024"}, 
      "inputs": [[18, 22, 0], [19, 0, 0], [20, 0, 0]]
    }, 
    {
      "op": "FullyConnected", 
      "name": "encoder_birnn_forward_l0_t22_h2h", 
      "attrs": {"num_hidden": "1024"}, 
      "inputs": [[331, 0, 0], [23, 0, 0], [24, 0, 0]]
    }, 
    {
      "op": "elemwise_add", 
      "name": "_plus202", 
      "inputs": [[333, 0, 0], [334, 0, 0]]
    }, 
    {
      "op": "SliceChannel", 
      "name": "encoder_birnn_forward_l0_t22_slice", 
      "attrs": {"num_outputs": "4"}, 
      "inputs": [[335, 0, 0]]
    }, 
    {
      "op": "Activation", 
      "name": "encoder_birnn_forward_l0_t22_o", 
      "attrs": {"act_type": "sigmoid"}, 
      "inputs": [[336, 3, 0]]
    }, 
    {
      "op": "Activation", 
      "name": "encoder_birnn_forward_l0_t22_f", 
      "attrs": {"act_type": "sigmoid"}, 
      "inputs": [[336, 1, 0]]
    }, 
    {
      "op": "elemwise_mul", 
      "name": "_mul404", 
      "inputs": [[338, 0, 0], [329, 0, 0]]
    }, 
    {
      "op": "Activation", 
      "name": "encoder_birnn_forward_l0_t22_i", 
      "attrs": {"act_type": "sigmoid"}, 
      "inputs": [[336, 0, 0]]
    }, 
    {
      "op": "Activation", 
      "name": "encoder_birnn_forward_l0_t22_c", 
      "attrs": {"act_type": "tanh"}, 
      "inputs": [[336, 2, 0]]
    }, 
    {
      "op": "elemwise_mul", 
      "name": "_mul405", 
      "inputs": [[340, 0, 0], [341, 0, 0]]
    }, 
    {
      "op": "elemwise_add", 
      "name": "encoder_birnn_forward_l0_t22_state", 
      "inputs": [[339, 0, 0], [342, 0, 0]]
    }, 
    {
      "op": "Activation", 
      "name": "activation202", 
      "attrs": {"act_type": "tanh"}, 
      "inputs": [[343, 0, 0]]
    }, 
    {
      "op": "elemwise_mul", 
      "name": "encoder_birnn_forward_l0_t22_out", 
      "inputs": [[337, 0, 0], [344, 0, 0]]
    }, 
    {
      "op": "expand_dims", 
      "name": "expand_dims265", 
      "attrs": {"axis": "0"}, 
      "inputs": [[345, 0, 0]]
    }, 
    {
      "op": "FullyConnected", 
      "name": "encoder_birnn_forward_l0_t23_i2h", 
      "attrs": {"num_hidden": "1024"}, 
      "inputs": [[18, 23, 0], [19, 0, 0], [20, 0, 0]]
    }, 
    {
      "op": "FullyConnected", 
      "name": "encoder_birnn_forward_l0_t23_h2h", 
      "attrs": {"num_hidden": "1024"}, 
      "inputs": [[345, 0, 0], [23, 0, 0], [24, 0, 0]]
    }, 
    {
      "op": "elemwise_add", 
      "name": "_plus203", 
      "inputs": [[347, 0, 0], [348, 0, 0]]
    }, 
    {
      "op": "SliceChannel", 
      "name": "encoder_birnn_forward_l0_t23_slice", 
      "attrs": {"num_outputs": "4"}, 
      "inputs": [[349, 0, 0]]
    }, 
    {
      "op": "Activation", 
      "name": "encoder_birnn_forward_l0_t23_o", 
      "attrs": {"act_type": "sigmoid"}, 
      "inputs": [[350, 3, 0]]
    }, 
    {
      "op": "Activation", 
      "name": "encoder_birnn_forward_l0_t23_f", 
      "attrs": {"act_type": "sigmoid"}, 
      "inputs": [[350, 1, 0]]
    }, 
    {
      "op": "elemwise_mul", 
      "name": "_mul406", 
      "inputs": [[352, 0, 0], [343, 0, 0]]
    }, 
    {
      "op": "Activation", 
      "name": "encoder_birnn_forward_l0_t23_i", 
      "attrs": {"act_type": "sigmoid"}, 
      "inputs": [[350, 0, 0]]
    }, 
    {
      "op": "Activation", 
      "name": "encoder_birnn_forward_l0_t23_c", 
      "attrs": {"act_type": "tanh"}, 
      "inputs": [[350, 2, 0]]
    }, 
    {
      "op": "elemwise_mul", 
      "name": "_mul407", 
      "inputs": [[354, 0, 0], [355, 0, 0]]
    }, 
    {
      "op": "elemwise_add", 
      "name": "encoder_birnn_forward_l0_t23_state", 
      "inputs": [[353, 0, 0], [356, 0, 0]]
    }, 
    {
      "op": "Activation", 
      "name": "activation203", 
      "attrs": {"act_type": "tanh"}, 
      "inputs": [[357, 0, 0]]
    }, 
    {
      "op": "elemwise_mul", 
      "name": "encoder_birnn_forward_l0_t23_out", 
      "inputs": [[351, 0, 0], [358, 0, 0]]
    }, 
    {
      "op": "expand_dims", 
      "name": "expand_dims266", 
      "attrs": {"axis": "0"}, 
      "inputs": [[359, 0, 0]]
    }, 
    {
      "op": "FullyConnected", 
      "name": "encoder_birnn_forward_l0_t24_i2h", 
      "attrs": {"num_hidden": "1024"}, 
      "inputs": [[18, 24, 0], [19, 0, 0], [20, 0, 0]]
    }, 
    {
      "op": "FullyConnected", 
      "name": "encoder_birnn_forward_l0_t24_h2h", 
      "attrs": {"num_hidden": "1024"}, 
      "inputs": [[359, 0, 0], [23, 0, 0], [24, 0, 0]]
    }, 
    {
      "op": "elemwise_add", 
      "name": "_plus204", 
      "inputs": [[361, 0, 0], [362, 0, 0]]
    }, 
    {
      "op": "SliceChannel", 
      "name": "encoder_birnn_forward_l0_t24_slice", 
      "attrs": {"num_outputs": "4"}, 
      "inputs": [[363, 0, 0]]
    }, 
    {
      "op": "Activation", 
      "name": "encoder_birnn_forward_l0_t24_o", 
      "attrs": {"act_type": "sigmoid"}, 
      "inputs": [[364, 3, 0]]
    }, 
    {
      "op": "Activation", 
      "name": "encoder_birnn_forward_l0_t24_f", 
      "attrs": {"act_type": "sigmoid"}, 
      "inputs": [[364, 1, 0]]
    }, 
    {
      "op": "elemwise_mul", 
      "name": "_mul408", 
      "inputs": [[366, 0, 0], [357, 0, 0]]
    }, 
    {
      "op": "Activation", 
      "name": "encoder_birnn_forward_l0_t24_i", 
      "attrs": {"act_type": "sigmoid"}, 
      "inputs": [[364, 0, 0]]
    }, 
    {
      "op": "Activation", 
      "name": "encoder_birnn_forward_l0_t24_c", 
      "attrs": {"act_type": "tanh"}, 
      "inputs": [[364, 2, 0]]
    }, 
    {
      "op": "elemwise_mul", 
      "name": "_mul409", 
      "inputs": [[368, 0, 0], [369, 0, 0]]
    }, 
    {
      "op": "elemwise_add", 
      "name": "encoder_birnn_forward_l0_t24_state", 
      "inputs": [[367, 0, 0], [370, 0, 0]]
    }, 
    {
      "op": "Activation", 
      "name": "activation204", 
      "attrs": {"act_type": "tanh"}, 
      "inputs": [[371, 0, 0]]
    }, 
    {
      "op": "elemwise_mul", 
      "name": "encoder_birnn_forward_l0_t24_out", 
      "inputs": [[365, 0, 0], [372, 0, 0]]
    }, 
    {
      "op": "expand_dims", 
      "name": "expand_dims267", 
      "attrs": {"axis": "0"}, 
      "inputs": [[373, 0, 0]]
    }, 
    {
      "op": "FullyConnected", 
      "name": "encoder_birnn_forward_l0_t25_i2h", 
      "attrs": {"num_hidden": "1024"}, 
      "inputs": [[18, 25, 0], [19, 0, 0], [20, 0, 0]]
    }, 
    {
      "op": "FullyConnected", 
      "name": "encoder_birnn_forward_l0_t25_h2h", 
      "attrs": {"num_hidden": "1024"}, 
      "inputs": [[373, 0, 0], [23, 0, 0], [24, 0, 0]]
    }, 
    {
      "op": "elemwise_add", 
      "name": "_plus205", 
      "inputs": [[375, 0, 0], [376, 0, 0]]
    }, 
    {
      "op": "SliceChannel", 
      "name": "encoder_birnn_forward_l0_t25_slice", 
      "attrs": {"num_outputs": "4"}, 
      "inputs": [[377, 0, 0]]
    }, 
    {
      "op": "Activation", 
      "name": "encoder_birnn_forward_l0_t25_o", 
      "attrs": {"act_type": "sigmoid"}, 
      "inputs": [[378, 3, 0]]
    }, 
    {
      "op": "Activation", 
      "name": "encoder_birnn_forward_l0_t25_f", 
      "attrs": {"act_type": "sigmoid"}, 
      "inputs": [[378, 1, 0]]
    }, 
    {
      "op": "elemwise_mul", 
      "name": "_mul410", 
      "inputs": [[380, 0, 0], [371, 0, 0]]
    }, 
    {
      "op": "Activation", 
      "name": "encoder_birnn_forward_l0_t25_i", 
      "attrs": {"act_type": "sigmoid"}, 
      "inputs": [[378, 0, 0]]
    }, 
    {
      "op": "Activation", 
      "name": "encoder_birnn_forward_l0_t25_c", 
      "attrs": {"act_type": "tanh"}, 
      "inputs": [[378, 2, 0]]
    }, 
    {
      "op": "elemwise_mul", 
      "name": "_mul411", 
      "inputs": [[382, 0, 0], [383, 0, 0]]
    }, 
    {
      "op": "elemwise_add", 
      "name": "encoder_birnn_forward_l0_t25_state", 
      "inputs": [[381, 0, 0], [384, 0, 0]]
    }, 
    {
      "op": "Activation", 
      "name": "activation205", 
      "attrs": {"act_type": "tanh"}, 
      "inputs": [[385, 0, 0]]
    }, 
    {
      "op": "elemwise_mul", 
      "name": "encoder_birnn_forward_l0_t25_out", 
      "inputs": [[379, 0, 0], [386, 0, 0]]
    }, 
    {
      "op": "expand_dims", 
      "name": "expand_dims268", 
      "attrs": {"axis": "0"}, 
      "inputs": [[387, 0, 0]]
    }, 
    {
      "op": "FullyConnected", 
      "name": "encoder_birnn_forward_l0_t26_i2h", 
      "attrs": {"num_hidden": "1024"}, 
      "inputs": [[18, 26, 0], [19, 0, 0], [20, 0, 0]]
    }, 
    {
      "op": "FullyConnected", 
      "name": "encoder_birnn_forward_l0_t26_h2h", 
      "attrs": {"num_hidden": "1024"}, 
      "inputs": [[387, 0, 0], [23, 0, 0], [24, 0, 0]]
    }, 
    {
      "op": "elemwise_add", 
      "name": "_plus206", 
      "inputs": [[389, 0, 0], [390, 0, 0]]
    }, 
    {
      "op": "SliceChannel", 
      "name": "encoder_birnn_forward_l0_t26_slice", 
      "attrs": {"num_outputs": "4"}, 
      "inputs": [[391, 0, 0]]
    }, 
    {
      "op": "Activation", 
      "name": "encoder_birnn_forward_l0_t26_o", 
      "attrs": {"act_type": "sigmoid"}, 
      "inputs": [[392, 3, 0]]
    }, 
    {
      "op": "Activation", 
      "name": "encoder_birnn_forward_l0_t26_f", 
      "attrs": {"act_type": "sigmoid"}, 
      "inputs": [[392, 1, 0]]
    }, 
    {
      "op": "elemwise_mul", 
      "name": "_mul412", 
      "inputs": [[394, 0, 0], [385, 0, 0]]
    }, 
    {
      "op": "Activation", 
      "name": "encoder_birnn_forward_l0_t26_i", 
      "attrs": {"act_type": "sigmoid"}, 
      "inputs": [[392, 0, 0]]
    }, 
    {
      "op": "Activation", 
      "name": "encoder_birnn_forward_l0_t26_c", 
      "attrs": {"act_type": "tanh"}, 
      "inputs": [[392, 2, 0]]
    }, 
    {
      "op": "elemwise_mul", 
      "name": "_mul413", 
      "inputs": [[396, 0, 0], [397, 0, 0]]
    }, 
    {
      "op": "elemwise_add", 
      "name": "encoder_birnn_forward_l0_t26_state", 
      "inputs": [[395, 0, 0], [398, 0, 0]]
    }, 
    {
      "op": "Activation", 
      "name": "activation206", 
      "attrs": {"act_type": "tanh"}, 
      "inputs": [[399, 0, 0]]
    }, 
    {
      "op": "elemwise_mul", 
      "name": "encoder_birnn_forward_l0_t26_out", 
      "inputs": [[393, 0, 0], [400, 0, 0]]
    }, 
    {
      "op": "expand_dims", 
      "name": "expand_dims269", 
      "attrs": {"axis": "0"}, 
      "inputs": [[401, 0, 0]]
    }, 
    {
      "op": "FullyConnected", 
      "name": "encoder_birnn_forward_l0_t27_i2h", 
      "attrs": {"num_hidden": "1024"}, 
      "inputs": [[18, 27, 0], [19, 0, 0], [20, 0, 0]]
    }, 
    {
      "op": "FullyConnected", 
      "name": "encoder_birnn_forward_l0_t27_h2h", 
      "attrs": {"num_hidden": "1024"}, 
      "inputs": [[401, 0, 0], [23, 0, 0], [24, 0, 0]]
    }, 
    {
      "op": "elemwise_add", 
      "name": "_plus207", 
      "inputs": [[403, 0, 0], [404, 0, 0]]
    }, 
    {
      "op": "SliceChannel", 
      "name": "encoder_birnn_forward_l0_t27_slice", 
      "attrs": {"num_outputs": "4"}, 
      "inputs": [[405, 0, 0]]
    }, 
    {
      "op": "Activation", 
      "name": "encoder_birnn_forward_l0_t27_o", 
      "attrs": {"act_type": "sigmoid"}, 
      "inputs": [[406, 3, 0]]
    }, 
    {
      "op": "Activation", 
      "name": "encoder_birnn_forward_l0_t27_f", 
      "attrs": {"act_type": "sigmoid"}, 
      "inputs": [[406, 1, 0]]
    }, 
    {
      "op": "elemwise_mul", 
      "name": "_mul414", 
      "inputs": [[408, 0, 0], [399, 0, 0]]
    }, 
    {
      "op": "Activation", 
      "name": "encoder_birnn_forward_l0_t27_i", 
      "attrs": {"act_type": "sigmoid"}, 
      "inputs": [[406, 0, 0]]
    }, 
    {
      "op": "Activation", 
      "name": "encoder_birnn_forward_l0_t27_c", 
      "attrs": {"act_type": "tanh"}, 
      "inputs": [[406, 2, 0]]
    }, 
    {
      "op": "elemwise_mul", 
      "name": "_mul415", 
      "inputs": [[410, 0, 0], [411, 0, 0]]
    }, 
    {
      "op": "elemwise_add", 
      "name": "encoder_birnn_forward_l0_t27_state", 
      "inputs": [[409, 0, 0], [412, 0, 0]]
    }, 
    {
      "op": "Activation", 
      "name": "activation207", 
      "attrs": {"act_type": "tanh"}, 
      "inputs": [[413, 0, 0]]
    }, 
    {
      "op": "elemwise_mul", 
      "name": "encoder_birnn_forward_l0_t27_out", 
      "inputs": [[407, 0, 0], [414, 0, 0]]
    }, 
    {
      "op": "expand_dims", 
      "name": "expand_dims270", 
      "attrs": {"axis": "0"}, 
      "inputs": [[415, 0, 0]]
    }, 
    {
      "op": "FullyConnected", 
      "name": "encoder_birnn_forward_l0_t28_i2h", 
      "attrs": {"num_hidden": "1024"}, 
      "inputs": [[18, 28, 0], [19, 0, 0], [20, 0, 0]]
    }, 
    {
      "op": "FullyConnected", 
      "name": "encoder_birnn_forward_l0_t28_h2h", 
      "attrs": {"num_hidden": "1024"}, 
      "inputs": [[415, 0, 0], [23, 0, 0], [24, 0, 0]]
    }, 
    {
      "op": "elemwise_add", 
      "name": "_plus208", 
      "inputs": [[417, 0, 0], [418, 0, 0]]
    }, 
    {
      "op": "SliceChannel", 
      "name": "encoder_birnn_forward_l0_t28_slice", 
      "attrs": {"num_outputs": "4"}, 
      "inputs": [[419, 0, 0]]
    }, 
    {
      "op": "Activation", 
      "name": "encoder_birnn_forward_l0_t28_o", 
      "attrs": {"act_type": "sigmoid"}, 
      "inputs": [[420, 3, 0]]
    }, 
    {
      "op": "Activation", 
      "name": "encoder_birnn_forward_l0_t28_f", 
      "attrs": {"act_type": "sigmoid"}, 
      "inputs": [[420, 1, 0]]
    }, 
    {
      "op": "elemwise_mul", 
      "name": "_mul416", 
      "inputs": [[422, 0, 0], [413, 0, 0]]
    }, 
    {
      "op": "Activation", 
      "name": "encoder_birnn_forward_l0_t28_i", 
      "attrs": {"act_type": "sigmoid"}, 
      "inputs": [[420, 0, 0]]
    }, 
    {
      "op": "Activation", 
      "name": "encoder_birnn_forward_l0_t28_c", 
      "attrs": {"act_type": "tanh"}, 
      "inputs": [[420, 2, 0]]
    }, 
    {
      "op": "elemwise_mul", 
      "name": "_mul417", 
      "inputs": [[424, 0, 0], [425, 0, 0]]
    }, 
    {
      "op": "elemwise_add", 
      "name": "encoder_birnn_forward_l0_t28_state", 
      "inputs": [[423, 0, 0], [426, 0, 0]]
    }, 
    {
      "op": "Activation", 
      "name": "activation208", 
      "attrs": {"act_type": "tanh"}, 
      "inputs": [[427, 0, 0]]
    }, 
    {
      "op": "elemwise_mul", 
      "name": "encoder_birnn_forward_l0_t28_out", 
      "inputs": [[421, 0, 0], [428, 0, 0]]
    }, 
    {
      "op": "expand_dims", 
      "name": "expand_dims271", 
      "attrs": {"axis": "0"}, 
      "inputs": [[429, 0, 0]]
    }, 
    {
      "op": "FullyConnected", 
      "name": "encoder_birnn_forward_l0_t29_i2h", 
      "attrs": {"num_hidden": "1024"}, 
      "inputs": [[18, 29, 0], [19, 0, 0], [20, 0, 0]]
    }, 
    {
      "op": "FullyConnected", 
      "name": "encoder_birnn_forward_l0_t29_h2h", 
      "attrs": {"num_hidden": "1024"}, 
      "inputs": [[429, 0, 0], [23, 0, 0], [24, 0, 0]]
    }, 
    {
      "op": "elemwise_add", 
      "name": "_plus209", 
      "inputs": [[431, 0, 0], [432, 0, 0]]
    }, 
    {
      "op": "SliceChannel", 
      "name": "encoder_birnn_forward_l0_t29_slice", 
      "attrs": {"num_outputs": "4"}, 
      "inputs": [[433, 0, 0]]
    }, 
    {
      "op": "Activation", 
      "name": "encoder_birnn_forward_l0_t29_o", 
      "attrs": {"act_type": "sigmoid"}, 
      "inputs": [[434, 3, 0]]
    }, 
    {
      "op": "Activation", 
      "name": "encoder_birnn_forward_l0_t29_f", 
      "attrs": {"act_type": "sigmoid"}, 
      "inputs": [[434, 1, 0]]
    }, 
    {
      "op": "elemwise_mul", 
      "name": "_mul418", 
      "inputs": [[436, 0, 0], [427, 0, 0]]
    }, 
    {
      "op": "Activation", 
      "name": "encoder_birnn_forward_l0_t29_i", 
      "attrs": {"act_type": "sigmoid"}, 
      "inputs": [[434, 0, 0]]
    }, 
    {
      "op": "Activation", 
      "name": "encoder_birnn_forward_l0_t29_c", 
      "attrs": {"act_type": "tanh"}, 
      "inputs": [[434, 2, 0]]
    }, 
    {
      "op": "elemwise_mul", 
      "name": "_mul419", 
      "inputs": [[438, 0, 0], [439, 0, 0]]
    }, 
    {
      "op": "elemwise_add", 
      "name": "encoder_birnn_forward_l0_t29_state", 
      "inputs": [[437, 0, 0], [440, 0, 0]]
    }, 
    {
      "op": "Activation", 
      "name": "activation209", 
      "attrs": {"act_type": "tanh"}, 
      "inputs": [[441, 0, 0]]
    }, 
    {
      "op": "elemwise_mul", 
      "name": "encoder_birnn_forward_l0_t29_out", 
      "inputs": [[435, 0, 0], [442, 0, 0]]
    }, 
    {
      "op": "expand_dims", 
      "name": "expand_dims272", 
      "attrs": {"axis": "0"}, 
      "inputs": [[443, 0, 0]]
    }, 
    {
      "op": "FullyConnected", 
      "name": "encoder_birnn_forward_l0_t30_i2h", 
      "attrs": {"num_hidden": "1024"}, 
      "inputs": [[18, 30, 0], [19, 0, 0], [20, 0, 0]]
    }, 
    {
      "op": "FullyConnected", 
      "name": "encoder_birnn_forward_l0_t30_h2h", 
      "attrs": {"num_hidden": "1024"}, 
      "inputs": [[443, 0, 0], [23, 0, 0], [24, 0, 0]]
    }, 
    {
      "op": "elemwise_add", 
      "name": "_plus210", 
      "inputs": [[445, 0, 0], [446, 0, 0]]
    }, 
    {
      "op": "SliceChannel", 
      "name": "encoder_birnn_forward_l0_t30_slice", 
      "attrs": {"num_outputs": "4"}, 
      "inputs": [[447, 0, 0]]
    }, 
    {
      "op": "Activation", 
      "name": "encoder_birnn_forward_l0_t30_o", 
      "attrs": {"act_type": "sigmoid"}, 
      "inputs": [[448, 3, 0]]
    }, 
    {
      "op": "Activation", 
      "name": "encoder_birnn_forward_l0_t30_f", 
      "attrs": {"act_type": "sigmoid"}, 
      "inputs": [[448, 1, 0]]
    }, 
    {
      "op": "elemwise_mul", 
      "name": "_mul420", 
      "inputs": [[450, 0, 0], [441, 0, 0]]
    }, 
    {
      "op": "Activation", 
      "name": "encoder_birnn_forward_l0_t30_i", 
      "attrs": {"act_type": "sigmoid"}, 
      "inputs": [[448, 0, 0]]
    }, 
    {
      "op": "Activation", 
      "name": "encoder_birnn_forward_l0_t30_c", 
      "attrs": {"act_type": "tanh"}, 
      "inputs": [[448, 2, 0]]
    }, 
    {
      "op": "elemwise_mul", 
      "name": "_mul421", 
      "inputs": [[452, 0, 0], [453, 0, 0]]
    }, 
    {
      "op": "elemwise_add", 
      "name": "encoder_birnn_forward_l0_t30_state", 
      "inputs": [[451, 0, 0], [454, 0, 0]]
    }, 
    {
      "op": "Activation", 
      "name": "activation210", 
      "attrs": {"act_type": "tanh"}, 
      "inputs": [[455, 0, 0]]
    }, 
    {
      "op": "elemwise_mul", 
      "name": "encoder_birnn_forward_l0_t30_out", 
      "inputs": [[449, 0, 0], [456, 0, 0]]
    }, 
    {
      "op": "expand_dims", 
      "name": "expand_dims273", 
      "attrs": {"axis": "0"}, 
      "inputs": [[457, 0, 0]]
    }, 
    {
      "op": "FullyConnected", 
      "name": "encoder_birnn_forward_l0_t31_i2h", 
      "attrs": {"num_hidden": "1024"}, 
      "inputs": [[18, 31, 0], [19, 0, 0], [20, 0, 0]]
    }, 
    {
      "op": "FullyConnected", 
      "name": "encoder_birnn_forward_l0_t31_h2h", 
      "attrs": {"num_hidden": "1024"}, 
      "inputs": [[457, 0, 0], [23, 0, 0], [24, 0, 0]]
    }, 
    {
      "op": "elemwise_add", 
      "name": "_plus211", 
      "inputs": [[459, 0, 0], [460, 0, 0]]
    }, 
    {
      "op": "SliceChannel", 
      "name": "encoder_birnn_forward_l0_t31_slice", 
      "attrs": {"num_outputs": "4"}, 
      "inputs": [[461, 0, 0]]
    }, 
    {
      "op": "Activation", 
      "name": "encoder_birnn_forward_l0_t31_o", 
      "attrs": {"act_type": "sigmoid"}, 
      "inputs": [[462, 3, 0]]
    }, 
    {
      "op": "Activation", 
      "name": "encoder_birnn_forward_l0_t31_f", 
      "attrs": {"act_type": "sigmoid"}, 
      "inputs": [[462, 1, 0]]
    }, 
    {
      "op": "elemwise_mul", 
      "name": "_mul422", 
      "inputs": [[464, 0, 0], [455, 0, 0]]
    }, 
    {
      "op": "Activation", 
      "name": "encoder_birnn_forward_l0_t31_i", 
      "attrs": {"act_type": "sigmoid"}, 
      "inputs": [[462, 0, 0]]
    }, 
    {
      "op": "Activation", 
      "name": "encoder_birnn_forward_l0_t31_c", 
      "attrs": {"act_type": "tanh"}, 
      "inputs": [[462, 2, 0]]
    }, 
    {
      "op": "elemwise_mul", 
      "name": "_mul423", 
      "inputs": [[466, 0, 0], [467, 0, 0]]
    }, 
    {
      "op": "elemwise_add", 
      "name": "encoder_birnn_forward_l0_t31_state", 
      "inputs": [[465, 0, 0], [468, 0, 0]]
    }, 
    {
      "op": "Activation", 
      "name": "activation211", 
      "attrs": {"act_type": "tanh"}, 
      "inputs": [[469, 0, 0]]
    }, 
    {
      "op": "elemwise_mul", 
      "name": "encoder_birnn_forward_l0_t31_out", 
      "inputs": [[463, 0, 0], [470, 0, 0]]
    }, 
    {
      "op": "expand_dims", 
      "name": "expand_dims274", 
      "attrs": {"axis": "0"}, 
      "inputs": [[471, 0, 0]]
    }, 
    {
      "op": "FullyConnected", 
      "name": "encoder_birnn_forward_l0_t32_i2h", 
      "attrs": {"num_hidden": "1024"}, 
      "inputs": [[18, 32, 0], [19, 0, 0], [20, 0, 0]]
    }, 
    {
      "op": "FullyConnected", 
      "name": "encoder_birnn_forward_l0_t32_h2h", 
      "attrs": {"num_hidden": "1024"}, 
      "inputs": [[471, 0, 0], [23, 0, 0], [24, 0, 0]]
    }, 
    {
      "op": "elemwise_add", 
      "name": "_plus212", 
      "inputs": [[473, 0, 0], [474, 0, 0]]
    }, 
    {
      "op": "SliceChannel", 
      "name": "encoder_birnn_forward_l0_t32_slice", 
      "attrs": {"num_outputs": "4"}, 
      "inputs": [[475, 0, 0]]
    }, 
    {
      "op": "Activation", 
      "name": "encoder_birnn_forward_l0_t32_o", 
      "attrs": {"act_type": "sigmoid"}, 
      "inputs": [[476, 3, 0]]
    }, 
    {
      "op": "Activation", 
      "name": "encoder_birnn_forward_l0_t32_f", 
      "attrs": {"act_type": "sigmoid"}, 
      "inputs": [[476, 1, 0]]
    }, 
    {
      "op": "elemwise_mul", 
      "name": "_mul424", 
      "inputs": [[478, 0, 0], [469, 0, 0]]
    }, 
    {
      "op": "Activation", 
      "name": "encoder_birnn_forward_l0_t32_i", 
      "attrs": {"act_type": "sigmoid"}, 
      "inputs": [[476, 0, 0]]
    }, 
    {
      "op": "Activation", 
      "name": "encoder_birnn_forward_l0_t32_c", 
      "attrs": {"act_type": "tanh"}, 
      "inputs": [[476, 2, 0]]
    }, 
    {
      "op": "elemwise_mul", 
      "name": "_mul425", 
      "inputs": [[480, 0, 0], [481, 0, 0]]
    }, 
    {
      "op": "elemwise_add", 
      "name": "encoder_birnn_forward_l0_t32_state", 
      "inputs": [[479, 0, 0], [482, 0, 0]]
    }, 
    {
      "op": "Activation", 
      "name": "activation212", 
      "attrs": {"act_type": "tanh"}, 
      "inputs": [[483, 0, 0]]
    }, 
    {
      "op": "elemwise_mul", 
      "name": "encoder_birnn_forward_l0_t32_out", 
      "inputs": [[477, 0, 0], [484, 0, 0]]
    }, 
    {
      "op": "expand_dims", 
      "name": "expand_dims275", 
      "attrs": {"axis": "0"}, 
      "inputs": [[485, 0, 0]]
    }, 
    {
      "op": "FullyConnected", 
      "name": "encoder_birnn_forward_l0_t33_i2h", 
      "attrs": {"num_hidden": "1024"}, 
      "inputs": [[18, 33, 0], [19, 0, 0], [20, 0, 0]]
    }, 
    {
      "op": "FullyConnected", 
      "name": "encoder_birnn_forward_l0_t33_h2h", 
      "attrs": {"num_hidden": "1024"}, 
      "inputs": [[485, 0, 0], [23, 0, 0], [24, 0, 0]]
    }, 
    {
      "op": "elemwise_add", 
      "name": "_plus213", 
      "inputs": [[487, 0, 0], [488, 0, 0]]
    }, 
    {
      "op": "SliceChannel", 
      "name": "encoder_birnn_forward_l0_t33_slice", 
      "attrs": {"num_outputs": "4"}, 
      "inputs": [[489, 0, 0]]
    }, 
    {
      "op": "Activation", 
      "name": "encoder_birnn_forward_l0_t33_o", 
      "attrs": {"act_type": "sigmoid"}, 
      "inputs": [[490, 3, 0]]
    }, 
    {
      "op": "Activation", 
      "name": "encoder_birnn_forward_l0_t33_f", 
      "attrs": {"act_type": "sigmoid"}, 
      "inputs": [[490, 1, 0]]
    }, 
    {
      "op": "elemwise_mul", 
      "name": "_mul426", 
      "inputs": [[492, 0, 0], [483, 0, 0]]
    }, 
    {
      "op": "Activation", 
      "name": "encoder_birnn_forward_l0_t33_i", 
      "attrs": {"act_type": "sigmoid"}, 
      "inputs": [[490, 0, 0]]
    }, 
    {
      "op": "Activation", 
      "name": "encoder_birnn_forward_l0_t33_c", 
      "attrs": {"act_type": "tanh"}, 
      "inputs": [[490, 2, 0]]
    }, 
    {
      "op": "elemwise_mul", 
      "name": "_mul427", 
      "inputs": [[494, 0, 0], [495, 0, 0]]
    }, 
    {
      "op": "elemwise_add", 
      "name": "encoder_birnn_forward_l0_t33_state", 
      "inputs": [[493, 0, 0], [496, 0, 0]]
    }, 
    {
      "op": "Activation", 
      "name": "activation213", 
      "attrs": {"act_type": "tanh"}, 
      "inputs": [[497, 0, 0]]
    }, 
    {
      "op": "elemwise_mul", 
      "name": "encoder_birnn_forward_l0_t33_out", 
      "inputs": [[491, 0, 0], [498, 0, 0]]
    }, 
    {
      "op": "expand_dims", 
      "name": "expand_dims276", 
      "attrs": {"axis": "0"}, 
      "inputs": [[499, 0, 0]]
    }, 
    {
      "op": "FullyConnected", 
      "name": "encoder_birnn_forward_l0_t34_i2h", 
      "attrs": {"num_hidden": "1024"}, 
      "inputs": [[18, 34, 0], [19, 0, 0], [20, 0, 0]]
    }, 
    {
      "op": "FullyConnected", 
      "name": "encoder_birnn_forward_l0_t34_h2h", 
      "attrs": {"num_hidden": "1024"}, 
      "inputs": [[499, 0, 0], [23, 0, 0], [24, 0, 0]]
    }, 
    {
      "op": "elemwise_add", 
      "name": "_plus214", 
      "inputs": [[501, 0, 0], [502, 0, 0]]
    }, 
    {
      "op": "SliceChannel", 
      "name": "encoder_birnn_forward_l0_t34_slice", 
      "attrs": {"num_outputs": "4"}, 
      "inputs": [[503, 0, 0]]
    }, 
    {
      "op": "Activation", 
      "name": "encoder_birnn_forward_l0_t34_o", 
      "attrs": {"act_type": "sigmoid"}, 
      "inputs": [[504, 3, 0]]
    }, 
    {
      "op": "Activation", 
      "name": "encoder_birnn_forward_l0_t34_f", 
      "attrs": {"act_type": "sigmoid"}, 
      "inputs": [[504, 1, 0]]
    }, 
    {
      "op": "elemwise_mul", 
      "name": "_mul428", 
      "inputs": [[506, 0, 0], [497, 0, 0]]
    }, 
    {
      "op": "Activation", 
      "name": "encoder_birnn_forward_l0_t34_i", 
      "attrs": {"act_type": "sigmoid"}, 
      "inputs": [[504, 0, 0]]
    }, 
    {
      "op": "Activation", 
      "name": "encoder_birnn_forward_l0_t34_c", 
      "attrs": {"act_type": "tanh"}, 
      "inputs": [[504, 2, 0]]
    }, 
    {
      "op": "elemwise_mul", 
      "name": "_mul429", 
      "inputs": [[508, 0, 0], [509, 0, 0]]
    }, 
    {
      "op": "elemwise_add", 
      "name": "encoder_birnn_forward_l0_t34_state", 
      "inputs": [[507, 0, 0], [510, 0, 0]]
    }, 
    {
      "op": "Activation", 
      "name": "activation214", 
      "attrs": {"act_type": "tanh"}, 
      "inputs": [[511, 0, 0]]
    }, 
    {
      "op": "elemwise_mul", 
      "name": "encoder_birnn_forward_l0_t34_out", 
      "inputs": [[505, 0, 0], [512, 0, 0]]
    }, 
    {
      "op": "expand_dims", 
      "name": "expand_dims277", 
      "attrs": {"axis": "0"}, 
      "inputs": [[513, 0, 0]]
    }, 
    {
      "op": "FullyConnected", 
      "name": "encoder_birnn_forward_l0_t35_i2h", 
      "attrs": {"num_hidden": "1024"}, 
      "inputs": [[18, 35, 0], [19, 0, 0], [20, 0, 0]]
    }, 
    {
      "op": "FullyConnected", 
      "name": "encoder_birnn_forward_l0_t35_h2h", 
      "attrs": {"num_hidden": "1024"}, 
      "inputs": [[513, 0, 0], [23, 0, 0], [24, 0, 0]]
    }, 
    {
      "op": "elemwise_add", 
      "name": "_plus215", 
      "inputs": [[515, 0, 0], [516, 0, 0]]
    }, 
    {
      "op": "SliceChannel", 
      "name": "encoder_birnn_forward_l0_t35_slice", 
      "attrs": {"num_outputs": "4"}, 
      "inputs": [[517, 0, 0]]
    }, 
    {
      "op": "Activation", 
      "name": "encoder_birnn_forward_l0_t35_o", 
      "attrs": {"act_type": "sigmoid"}, 
      "inputs": [[518, 3, 0]]
    }, 
    {
      "op": "Activation", 
      "name": "encoder_birnn_forward_l0_t35_f", 
      "attrs": {"act_type": "sigmoid"}, 
      "inputs": [[518, 1, 0]]
    }, 
    {
      "op": "elemwise_mul", 
      "name": "_mul430", 
      "inputs": [[520, 0, 0], [511, 0, 0]]
    }, 
    {
      "op": "Activation", 
      "name": "encoder_birnn_forward_l0_t35_i", 
      "attrs": {"act_type": "sigmoid"}, 
      "inputs": [[518, 0, 0]]
    }, 
    {
      "op": "Activation", 
      "name": "encoder_birnn_forward_l0_t35_c", 
      "attrs": {"act_type": "tanh"}, 
      "inputs": [[518, 2, 0]]
    }, 
    {
      "op": "elemwise_mul", 
      "name": "_mul431", 
      "inputs": [[522, 0, 0], [523, 0, 0]]
    }, 
    {
      "op": "elemwise_add", 
      "name": "encoder_birnn_forward_l0_t35_state", 
      "inputs": [[521, 0, 0], [524, 0, 0]]
    }, 
    {
      "op": "Activation", 
      "name": "activation215", 
      "attrs": {"act_type": "tanh"}, 
      "inputs": [[525, 0, 0]]
    }, 
    {
      "op": "elemwise_mul", 
      "name": "encoder_birnn_forward_l0_t35_out", 
      "inputs": [[519, 0, 0], [526, 0, 0]]
    }, 
    {
      "op": "expand_dims", 
      "name": "expand_dims278", 
      "attrs": {"axis": "0"}, 
      "inputs": [[527, 0, 0]]
    }, 
    {
      "op": "FullyConnected", 
      "name": "encoder_birnn_forward_l0_t36_i2h", 
      "attrs": {"num_hidden": "1024"}, 
      "inputs": [[18, 36, 0], [19, 0, 0], [20, 0, 0]]
    }, 
    {
      "op": "FullyConnected", 
      "name": "encoder_birnn_forward_l0_t36_h2h", 
      "attrs": {"num_hidden": "1024"}, 
      "inputs": [[527, 0, 0], [23, 0, 0], [24, 0, 0]]
    }, 
    {
      "op": "elemwise_add", 
      "name": "_plus216", 
      "inputs": [[529, 0, 0], [530, 0, 0]]
    }, 
    {
      "op": "SliceChannel", 
      "name": "encoder_birnn_forward_l0_t36_slice", 
      "attrs": {"num_outputs": "4"}, 
      "inputs": [[531, 0, 0]]
    }, 
    {
      "op": "Activation", 
      "name": "encoder_birnn_forward_l0_t36_o", 
      "attrs": {"act_type": "sigmoid"}, 
      "inputs": [[532, 3, 0]]
    }, 
    {
      "op": "Activation", 
      "name": "encoder_birnn_forward_l0_t36_f", 
      "attrs": {"act_type": "sigmoid"}, 
      "inputs": [[532, 1, 0]]
    }, 
    {
      "op": "elemwise_mul", 
      "name": "_mul432", 
      "inputs": [[534, 0, 0], [525, 0, 0]]
    }, 
    {
      "op": "Activation", 
      "name": "encoder_birnn_forward_l0_t36_i", 
      "attrs": {"act_type": "sigmoid"}, 
      "inputs": [[532, 0, 0]]
    }, 
    {
      "op": "Activation", 
      "name": "encoder_birnn_forward_l0_t36_c", 
      "attrs": {"act_type": "tanh"}, 
      "inputs": [[532, 2, 0]]
    }, 
    {
      "op": "elemwise_mul", 
      "name": "_mul433", 
      "inputs": [[536, 0, 0], [537, 0, 0]]
    }, 
    {
      "op": "elemwise_add", 
      "name": "encoder_birnn_forward_l0_t36_state", 
      "inputs": [[535, 0, 0], [538, 0, 0]]
    }, 
    {
      "op": "Activation", 
      "name": "activation216", 
      "attrs": {"act_type": "tanh"}, 
      "inputs": [[539, 0, 0]]
    }, 
    {
      "op": "elemwise_mul", 
      "name": "encoder_birnn_forward_l0_t36_out", 
      "inputs": [[533, 0, 0], [540, 0, 0]]
    }, 
    {
      "op": "expand_dims", 
      "name": "expand_dims279", 
      "attrs": {"axis": "0"}, 
      "inputs": [[541, 0, 0]]
    }, 
    {
      "op": "FullyConnected", 
      "name": "encoder_birnn_forward_l0_t37_i2h", 
      "attrs": {"num_hidden": "1024"}, 
      "inputs": [[18, 37, 0], [19, 0, 0], [20, 0, 0]]
    }, 
    {
      "op": "FullyConnected", 
      "name": "encoder_birnn_forward_l0_t37_h2h", 
      "attrs": {"num_hidden": "1024"}, 
      "inputs": [[541, 0, 0], [23, 0, 0], [24, 0, 0]]
    }, 
    {
      "op": "elemwise_add", 
      "name": "_plus217", 
      "inputs": [[543, 0, 0], [544, 0, 0]]
    }, 
    {
      "op": "SliceChannel", 
      "name": "encoder_birnn_forward_l0_t37_slice", 
      "attrs": {"num_outputs": "4"}, 
      "inputs": [[545, 0, 0]]
    }, 
    {
      "op": "Activation", 
      "name": "encoder_birnn_forward_l0_t37_o", 
      "attrs": {"act_type": "sigmoid"}, 
      "inputs": [[546, 3, 0]]
    }, 
    {
      "op": "Activation", 
      "name": "encoder_birnn_forward_l0_t37_f", 
      "attrs": {"act_type": "sigmoid"}, 
      "inputs": [[546, 1, 0]]
    }, 
    {
      "op": "elemwise_mul", 
      "name": "_mul434", 
      "inputs": [[548, 0, 0], [539, 0, 0]]
    }, 
    {
      "op": "Activation", 
      "name": "encoder_birnn_forward_l0_t37_i", 
      "attrs": {"act_type": "sigmoid"}, 
      "inputs": [[546, 0, 0]]
    }, 
    {
      "op": "Activation", 
      "name": "encoder_birnn_forward_l0_t37_c", 
      "attrs": {"act_type": "tanh"}, 
      "inputs": [[546, 2, 0]]
    }, 
    {
      "op": "elemwise_mul", 
      "name": "_mul435", 
      "inputs": [[550, 0, 0], [551, 0, 0]]
    }, 
    {
      "op": "elemwise_add", 
      "name": "encoder_birnn_forward_l0_t37_state", 
      "inputs": [[549, 0, 0], [552, 0, 0]]
    }, 
    {
      "op": "Activation", 
      "name": "activation217", 
      "attrs": {"act_type": "tanh"}, 
      "inputs": [[553, 0, 0]]
    }, 
    {
      "op": "elemwise_mul", 
      "name": "encoder_birnn_forward_l0_t37_out", 
      "inputs": [[547, 0, 0], [554, 0, 0]]
    }, 
    {
      "op": "expand_dims", 
      "name": "expand_dims280", 
      "attrs": {"axis": "0"}, 
      "inputs": [[555, 0, 0]]
    }, 
    {
      "op": "FullyConnected", 
      "name": "encoder_birnn_forward_l0_t38_i2h", 
      "attrs": {"num_hidden": "1024"}, 
      "inputs": [[18, 38, 0], [19, 0, 0], [20, 0, 0]]
    }, 
    {
      "op": "FullyConnected", 
      "name": "encoder_birnn_forward_l0_t38_h2h", 
      "attrs": {"num_hidden": "1024"}, 
      "inputs": [[555, 0, 0], [23, 0, 0], [24, 0, 0]]
    }, 
    {
      "op": "elemwise_add", 
      "name": "_plus218", 
      "inputs": [[557, 0, 0], [558, 0, 0]]
    }, 
    {
      "op": "SliceChannel", 
      "name": "encoder_birnn_forward_l0_t38_slice", 
      "attrs": {"num_outputs": "4"}, 
      "inputs": [[559, 0, 0]]
    }, 
    {
      "op": "Activation", 
      "name": "encoder_birnn_forward_l0_t38_o", 
      "attrs": {"act_type": "sigmoid"}, 
      "inputs": [[560, 3, 0]]
    }, 
    {
      "op": "Activation", 
      "name": "encoder_birnn_forward_l0_t38_f", 
      "attrs": {"act_type": "sigmoid"}, 
      "inputs": [[560, 1, 0]]
    }, 
    {
      "op": "elemwise_mul", 
      "name": "_mul436", 
      "inputs": [[562, 0, 0], [553, 0, 0]]
    }, 
    {
      "op": "Activation", 
      "name": "encoder_birnn_forward_l0_t38_i", 
      "attrs": {"act_type": "sigmoid"}, 
      "inputs": [[560, 0, 0]]
    }, 
    {
      "op": "Activation", 
      "name": "encoder_birnn_forward_l0_t38_c", 
      "attrs": {"act_type": "tanh"}, 
      "inputs": [[560, 2, 0]]
    }, 
    {
      "op": "elemwise_mul", 
      "name": "_mul437", 
      "inputs": [[564, 0, 0], [565, 0, 0]]
    }, 
    {
      "op": "elemwise_add", 
      "name": "encoder_birnn_forward_l0_t38_state", 
      "inputs": [[563, 0, 0], [566, 0, 0]]
    }, 
    {
      "op": "Activation", 
      "name": "activation218", 
      "attrs": {"act_type": "tanh"}, 
      "inputs": [[567, 0, 0]]
    }, 
    {
      "op": "elemwise_mul", 
      "name": "encoder_birnn_forward_l0_t38_out", 
      "inputs": [[561, 0, 0], [568, 0, 0]]
    }, 
    {
      "op": "expand_dims", 
      "name": "expand_dims281", 
      "attrs": {"axis": "0"}, 
      "inputs": [[569, 0, 0]]
    }, 
    {
      "op": "FullyConnected", 
      "name": "encoder_birnn_forward_l0_t39_i2h", 
      "attrs": {"num_hidden": "1024"}, 
      "inputs": [[18, 39, 0], [19, 0, 0], [20, 0, 0]]
    }, 
    {
      "op": "FullyConnected", 
      "name": "encoder_birnn_forward_l0_t39_h2h", 
      "attrs": {"num_hidden": "1024"}, 
      "inputs": [[569, 0, 0], [23, 0, 0], [24, 0, 0]]
    }, 
    {
      "op": "elemwise_add", 
      "name": "_plus219", 
      "inputs": [[571, 0, 0], [572, 0, 0]]
    }, 
    {
      "op": "SliceChannel", 
      "name": "encoder_birnn_forward_l0_t39_slice", 
      "attrs": {"num_outputs": "4"}, 
      "inputs": [[573, 0, 0]]
    }, 
    {
      "op": "Activation", 
      "name": "encoder_birnn_forward_l0_t39_o", 
      "attrs": {"act_type": "sigmoid"}, 
      "inputs": [[574, 3, 0]]
    }, 
    {
      "op": "Activation", 
      "name": "encoder_birnn_forward_l0_t39_f", 
      "attrs": {"act_type": "sigmoid"}, 
      "inputs": [[574, 1, 0]]
    }, 
    {
      "op": "elemwise_mul", 
      "name": "_mul438", 
      "inputs": [[576, 0, 0], [567, 0, 0]]
    }, 
    {
      "op": "Activation", 
      "name": "encoder_birnn_forward_l0_t39_i", 
      "attrs": {"act_type": "sigmoid"}, 
      "inputs": [[574, 0, 0]]
    }, 
    {
      "op": "Activation", 
      "name": "encoder_birnn_forward_l0_t39_c", 
      "attrs": {"act_type": "tanh"}, 
      "inputs": [[574, 2, 0]]
    }, 
    {
      "op": "elemwise_mul", 
      "name": "_mul439", 
      "inputs": [[578, 0, 0], [579, 0, 0]]
    }, 
    {
      "op": "elemwise_add", 
      "name": "encoder_birnn_forward_l0_t39_state", 
      "inputs": [[577, 0, 0], [580, 0, 0]]
    }, 
    {
      "op": "Activation", 
      "name": "activation219", 
      "attrs": {"act_type": "tanh"}, 
      "inputs": [[581, 0, 0]]
    }, 
    {
      "op": "elemwise_mul", 
      "name": "encoder_birnn_forward_l0_t39_out", 
      "inputs": [[575, 0, 0], [582, 0, 0]]
    }, 
    {
      "op": "expand_dims", 
      "name": "expand_dims282", 
      "attrs": {"axis": "0"}, 
      "inputs": [[583, 0, 0]]
    }, 
    {
      "op": "FullyConnected", 
      "name": "encoder_birnn_forward_l0_t40_i2h", 
      "attrs": {"num_hidden": "1024"}, 
      "inputs": [[18, 40, 0], [19, 0, 0], [20, 0, 0]]
    }, 
    {
      "op": "FullyConnected", 
      "name": "encoder_birnn_forward_l0_t40_h2h", 
      "attrs": {"num_hidden": "1024"}, 
      "inputs": [[583, 0, 0], [23, 0, 0], [24, 0, 0]]
    }, 
    {
      "op": "elemwise_add", 
      "name": "_plus220", 
      "inputs": [[585, 0, 0], [586, 0, 0]]
    }, 
    {
      "op": "SliceChannel", 
      "name": "encoder_birnn_forward_l0_t40_slice", 
      "attrs": {"num_outputs": "4"}, 
      "inputs": [[587, 0, 0]]
    }, 
    {
      "op": "Activation", 
      "name": "encoder_birnn_forward_l0_t40_o", 
      "attrs": {"act_type": "sigmoid"}, 
      "inputs": [[588, 3, 0]]
    }, 
    {
      "op": "Activation", 
      "name": "encoder_birnn_forward_l0_t40_f", 
      "attrs": {"act_type": "sigmoid"}, 
      "inputs": [[588, 1, 0]]
    }, 
    {
      "op": "elemwise_mul", 
      "name": "_mul440", 
      "inputs": [[590, 0, 0], [581, 0, 0]]
    }, 
    {
      "op": "Activation", 
      "name": "encoder_birnn_forward_l0_t40_i", 
      "attrs": {"act_type": "sigmoid"}, 
      "inputs": [[588, 0, 0]]
    }, 
    {
      "op": "Activation", 
      "name": "encoder_birnn_forward_l0_t40_c", 
      "attrs": {"act_type": "tanh"}, 
      "inputs": [[588, 2, 0]]
    }, 
    {
      "op": "elemwise_mul", 
      "name": "_mul441", 
      "inputs": [[592, 0, 0], [593, 0, 0]]
    }, 
    {
      "op": "elemwise_add", 
      "name": "encoder_birnn_forward_l0_t40_state", 
      "inputs": [[591, 0, 0], [594, 0, 0]]
    }, 
    {
      "op": "Activation", 
      "name": "activation220", 
      "attrs": {"act_type": "tanh"}, 
      "inputs": [[595, 0, 0]]
    }, 
    {
      "op": "elemwise_mul", 
      "name": "encoder_birnn_forward_l0_t40_out", 
      "inputs": [[589, 0, 0], [596, 0, 0]]
    }, 
    {
      "op": "expand_dims", 
      "name": "expand_dims283", 
      "attrs": {"axis": "0"}, 
      "inputs": [[597, 0, 0]]
    }, 
    {
      "op": "FullyConnected", 
      "name": "encoder_birnn_forward_l0_t41_i2h", 
      "attrs": {"num_hidden": "1024"}, 
      "inputs": [[18, 41, 0], [19, 0, 0], [20, 0, 0]]
    }, 
    {
      "op": "FullyConnected", 
      "name": "encoder_birnn_forward_l0_t41_h2h", 
      "attrs": {"num_hidden": "1024"}, 
      "inputs": [[597, 0, 0], [23, 0, 0], [24, 0, 0]]
    }, 
    {
      "op": "elemwise_add", 
      "name": "_plus221", 
      "inputs": [[599, 0, 0], [600, 0, 0]]
    }, 
    {
      "op": "SliceChannel", 
      "name": "encoder_birnn_forward_l0_t41_slice", 
      "attrs": {"num_outputs": "4"}, 
      "inputs": [[601, 0, 0]]
    }, 
    {
      "op": "Activation", 
      "name": "encoder_birnn_forward_l0_t41_o", 
      "attrs": {"act_type": "sigmoid"}, 
      "inputs": [[602, 3, 0]]
    }, 
    {
      "op": "Activation", 
      "name": "encoder_birnn_forward_l0_t41_f", 
      "attrs": {"act_type": "sigmoid"}, 
      "inputs": [[602, 1, 0]]
    }, 
    {
      "op": "elemwise_mul", 
      "name": "_mul442", 
      "inputs": [[604, 0, 0], [595, 0, 0]]
    }, 
    {
      "op": "Activation", 
      "name": "encoder_birnn_forward_l0_t41_i", 
      "attrs": {"act_type": "sigmoid"}, 
      "inputs": [[602, 0, 0]]
    }, 
    {
      "op": "Activation", 
      "name": "encoder_birnn_forward_l0_t41_c", 
      "attrs": {"act_type": "tanh"}, 
      "inputs": [[602, 2, 0]]
    }, 
    {
      "op": "elemwise_mul", 
      "name": "_mul443", 
      "inputs": [[606, 0, 0], [607, 0, 0]]
    }, 
    {
      "op": "elemwise_add", 
      "name": "encoder_birnn_forward_l0_t41_state", 
      "inputs": [[605, 0, 0], [608, 0, 0]]
    }, 
    {
      "op": "Activation", 
      "name": "activation221", 
      "attrs": {"act_type": "tanh"}, 
      "inputs": [[609, 0, 0]]
    }, 
    {
      "op": "elemwise_mul", 
      "name": "encoder_birnn_forward_l0_t41_out", 
      "inputs": [[603, 0, 0], [610, 0, 0]]
    }, 
    {
      "op": "expand_dims", 
      "name": "expand_dims284", 
      "attrs": {"axis": "0"}, 
      "inputs": [[611, 0, 0]]
    }, 
    {
      "op": "FullyConnected", 
      "name": "encoder_birnn_forward_l0_t42_i2h", 
      "attrs": {"num_hidden": "1024"}, 
      "inputs": [[18, 42, 0], [19, 0, 0], [20, 0, 0]]
    }, 
    {
      "op": "FullyConnected", 
      "name": "encoder_birnn_forward_l0_t42_h2h", 
      "attrs": {"num_hidden": "1024"}, 
      "inputs": [[611, 0, 0], [23, 0, 0], [24, 0, 0]]
    }, 
    {
      "op": "elemwise_add", 
      "name": "_plus222", 
      "inputs": [[613, 0, 0], [614, 0, 0]]
    }, 
    {
      "op": "SliceChannel", 
      "name": "encoder_birnn_forward_l0_t42_slice", 
      "attrs": {"num_outputs": "4"}, 
      "inputs": [[615, 0, 0]]
    }, 
    {
      "op": "Activation", 
      "name": "encoder_birnn_forward_l0_t42_o", 
      "attrs": {"act_type": "sigmoid"}, 
      "inputs": [[616, 3, 0]]
    }, 
    {
      "op": "Activation", 
      "name": "encoder_birnn_forward_l0_t42_f", 
      "attrs": {"act_type": "sigmoid"}, 
      "inputs": [[616, 1, 0]]
    }, 
    {
      "op": "elemwise_mul", 
      "name": "_mul444", 
      "inputs": [[618, 0, 0], [609, 0, 0]]
    }, 
    {
      "op": "Activation", 
      "name": "encoder_birnn_forward_l0_t42_i", 
      "attrs": {"act_type": "sigmoid"}, 
      "inputs": [[616, 0, 0]]
    }, 
    {
      "op": "Activation", 
      "name": "encoder_birnn_forward_l0_t42_c", 
      "attrs": {"act_type": "tanh"}, 
      "inputs": [[616, 2, 0]]
    }, 
    {
      "op": "elemwise_mul", 
      "name": "_mul445", 
      "inputs": [[620, 0, 0], [621, 0, 0]]
    }, 
    {
      "op": "elemwise_add", 
      "name": "encoder_birnn_forward_l0_t42_state", 
      "inputs": [[619, 0, 0], [622, 0, 0]]
    }, 
    {
      "op": "Activation", 
      "name": "activation222", 
      "attrs": {"act_type": "tanh"}, 
      "inputs": [[623, 0, 0]]
    }, 
    {
      "op": "elemwise_mul", 
      "name": "encoder_birnn_forward_l0_t42_out", 
      "inputs": [[617, 0, 0], [624, 0, 0]]
    }, 
    {
      "op": "expand_dims", 
      "name": "expand_dims285", 
      "attrs": {"axis": "0"}, 
      "inputs": [[625, 0, 0]]
    }, 
    {
      "op": "FullyConnected", 
      "name": "encoder_birnn_forward_l0_t43_i2h", 
      "attrs": {"num_hidden": "1024"}, 
      "inputs": [[18, 43, 0], [19, 0, 0], [20, 0, 0]]
    }, 
    {
      "op": "FullyConnected", 
      "name": "encoder_birnn_forward_l0_t43_h2h", 
      "attrs": {"num_hidden": "1024"}, 
      "inputs": [[625, 0, 0], [23, 0, 0], [24, 0, 0]]
    }, 
    {
      "op": "elemwise_add", 
      "name": "_plus223", 
      "inputs": [[627, 0, 0], [628, 0, 0]]
    }, 
    {
      "op": "SliceChannel", 
      "name": "encoder_birnn_forward_l0_t43_slice", 
      "attrs": {"num_outputs": "4"}, 
      "inputs": [[629, 0, 0]]
    }, 
    {
      "op": "Activation", 
      "name": "encoder_birnn_forward_l0_t43_o", 
      "attrs": {"act_type": "sigmoid"}, 
      "inputs": [[630, 3, 0]]
    }, 
    {
      "op": "Activation", 
      "name": "encoder_birnn_forward_l0_t43_f", 
      "attrs": {"act_type": "sigmoid"}, 
      "inputs": [[630, 1, 0]]
    }, 
    {
      "op": "elemwise_mul", 
      "name": "_mul446", 
      "inputs": [[632, 0, 0], [623, 0, 0]]
    }, 
    {
      "op": "Activation", 
      "name": "encoder_birnn_forward_l0_t43_i", 
      "attrs": {"act_type": "sigmoid"}, 
      "inputs": [[630, 0, 0]]
    }, 
    {
      "op": "Activation", 
      "name": "encoder_birnn_forward_l0_t43_c", 
      "attrs": {"act_type": "tanh"}, 
      "inputs": [[630, 2, 0]]
    }, 
    {
      "op": "elemwise_mul", 
      "name": "_mul447", 
      "inputs": [[634, 0, 0], [635, 0, 0]]
    }, 
    {
      "op": "elemwise_add", 
      "name": "encoder_birnn_forward_l0_t43_state", 
      "inputs": [[633, 0, 0], [636, 0, 0]]
    }, 
    {
      "op": "Activation", 
      "name": "activation223", 
      "attrs": {"act_type": "tanh"}, 
      "inputs": [[637, 0, 0]]
    }, 
    {
      "op": "elemwise_mul", 
      "name": "encoder_birnn_forward_l0_t43_out", 
      "inputs": [[631, 0, 0], [638, 0, 0]]
    }, 
    {
      "op": "expand_dims", 
      "name": "expand_dims286", 
      "attrs": {"axis": "0"}, 
      "inputs": [[639, 0, 0]]
    }, 
    {
      "op": "FullyConnected", 
      "name": "encoder_birnn_forward_l0_t44_i2h", 
      "attrs": {"num_hidden": "1024"}, 
      "inputs": [[18, 44, 0], [19, 0, 0], [20, 0, 0]]
    }, 
    {
      "op": "FullyConnected", 
      "name": "encoder_birnn_forward_l0_t44_h2h", 
      "attrs": {"num_hidden": "1024"}, 
      "inputs": [[639, 0, 0], [23, 0, 0], [24, 0, 0]]
    }, 
    {
      "op": "elemwise_add", 
      "name": "_plus224", 
      "inputs": [[641, 0, 0], [642, 0, 0]]
    }, 
    {
      "op": "SliceChannel", 
      "name": "encoder_birnn_forward_l0_t44_slice", 
      "attrs": {"num_outputs": "4"}, 
      "inputs": [[643, 0, 0]]
    }, 
    {
      "op": "Activation", 
      "name": "encoder_birnn_forward_l0_t44_o", 
      "attrs": {"act_type": "sigmoid"}, 
      "inputs": [[644, 3, 0]]
    }, 
    {
      "op": "Activation", 
      "name": "encoder_birnn_forward_l0_t44_f", 
      "attrs": {"act_type": "sigmoid"}, 
      "inputs": [[644, 1, 0]]
    }, 
    {
      "op": "elemwise_mul", 
      "name": "_mul448", 
      "inputs": [[646, 0, 0], [637, 0, 0]]
    }, 
    {
      "op": "Activation", 
      "name": "encoder_birnn_forward_l0_t44_i", 
      "attrs": {"act_type": "sigmoid"}, 
      "inputs": [[644, 0, 0]]
    }, 
    {
      "op": "Activation", 
      "name": "encoder_birnn_forward_l0_t44_c", 
      "attrs": {"act_type": "tanh"}, 
      "inputs": [[644, 2, 0]]
    }, 
    {
      "op": "elemwise_mul", 
      "name": "_mul449", 
      "inputs": [[648, 0, 0], [649, 0, 0]]
    }, 
    {
      "op": "elemwise_add", 
      "name": "encoder_birnn_forward_l0_t44_state", 
      "inputs": [[647, 0, 0], [650, 0, 0]]
    }, 
    {
      "op": "Activation", 
      "name": "activation224", 
      "attrs": {"act_type": "tanh"}, 
      "inputs": [[651, 0, 0]]
    }, 
    {
      "op": "elemwise_mul", 
      "name": "encoder_birnn_forward_l0_t44_out", 
      "inputs": [[645, 0, 0], [652, 0, 0]]
    }, 
    {
      "op": "expand_dims", 
      "name": "expand_dims287", 
      "attrs": {"axis": "0"}, 
      "inputs": [[653, 0, 0]]
    }, 
    {
      "op": "FullyConnected", 
      "name": "encoder_birnn_forward_l0_t45_i2h", 
      "attrs": {"num_hidden": "1024"}, 
      "inputs": [[18, 45, 0], [19, 0, 0], [20, 0, 0]]
    }, 
    {
      "op": "FullyConnected", 
      "name": "encoder_birnn_forward_l0_t45_h2h", 
      "attrs": {"num_hidden": "1024"}, 
      "inputs": [[653, 0, 0], [23, 0, 0], [24, 0, 0]]
    }, 
    {
      "op": "elemwise_add", 
      "name": "_plus225", 
      "inputs": [[655, 0, 0], [656, 0, 0]]
    }, 
    {
      "op": "SliceChannel", 
      "name": "encoder_birnn_forward_l0_t45_slice", 
      "attrs": {"num_outputs": "4"}, 
      "inputs": [[657, 0, 0]]
    }, 
    {
      "op": "Activation", 
      "name": "encoder_birnn_forward_l0_t45_o", 
      "attrs": {"act_type": "sigmoid"}, 
      "inputs": [[658, 3, 0]]
    }, 
    {
      "op": "Activation", 
      "name": "encoder_birnn_forward_l0_t45_f", 
      "attrs": {"act_type": "sigmoid"}, 
      "inputs": [[658, 1, 0]]
    }, 
    {
      "op": "elemwise_mul", 
      "name": "_mul450", 
      "inputs": [[660, 0, 0], [651, 0, 0]]
    }, 
    {
      "op": "Activation", 
      "name": "encoder_birnn_forward_l0_t45_i", 
      "attrs": {"act_type": "sigmoid"}, 
      "inputs": [[658, 0, 0]]
    }, 
    {
      "op": "Activation", 
      "name": "encoder_birnn_forward_l0_t45_c", 
      "attrs": {"act_type": "tanh"}, 
      "inputs": [[658, 2, 0]]
    }, 
    {
      "op": "elemwise_mul", 
      "name": "_mul451", 
      "inputs": [[662, 0, 0], [663, 0, 0]]
    }, 
    {
      "op": "elemwise_add", 
      "name": "encoder_birnn_forward_l0_t45_state", 
      "inputs": [[661, 0, 0], [664, 0, 0]]
    }, 
    {
      "op": "Activation", 
      "name": "activation225", 
      "attrs": {"act_type": "tanh"}, 
      "inputs": [[665, 0, 0]]
    }, 
    {
      "op": "elemwise_mul", 
      "name": "encoder_birnn_forward_l0_t45_out", 
      "inputs": [[659, 0, 0], [666, 0, 0]]
    }, 
    {
      "op": "expand_dims", 
      "name": "expand_dims288", 
      "attrs": {"axis": "0"}, 
      "inputs": [[667, 0, 0]]
    }, 
    {
      "op": "FullyConnected", 
      "name": "encoder_birnn_forward_l0_t46_i2h", 
      "attrs": {"num_hidden": "1024"}, 
      "inputs": [[18, 46, 0], [19, 0, 0], [20, 0, 0]]
    }, 
    {
      "op": "FullyConnected", 
      "name": "encoder_birnn_forward_l0_t46_h2h", 
      "attrs": {"num_hidden": "1024"}, 
      "inputs": [[667, 0, 0], [23, 0, 0], [24, 0, 0]]
    }, 
    {
      "op": "elemwise_add", 
      "name": "_plus226", 
      "inputs": [[669, 0, 0], [670, 0, 0]]
    }, 
    {
      "op": "SliceChannel", 
      "name": "encoder_birnn_forward_l0_t46_slice", 
      "attrs": {"num_outputs": "4"}, 
      "inputs": [[671, 0, 0]]
    }, 
    {
      "op": "Activation", 
      "name": "encoder_birnn_forward_l0_t46_o", 
      "attrs": {"act_type": "sigmoid"}, 
      "inputs": [[672, 3, 0]]
    }, 
    {
      "op": "Activation", 
      "name": "encoder_birnn_forward_l0_t46_f", 
      "attrs": {"act_type": "sigmoid"}, 
      "inputs": [[672, 1, 0]]
    }, 
    {
      "op": "elemwise_mul", 
      "name": "_mul452", 
      "inputs": [[674, 0, 0], [665, 0, 0]]
    }, 
    {
      "op": "Activation", 
      "name": "encoder_birnn_forward_l0_t46_i", 
      "attrs": {"act_type": "sigmoid"}, 
      "inputs": [[672, 0, 0]]
    }, 
    {
      "op": "Activation", 
      "name": "encoder_birnn_forward_l0_t46_c", 
      "attrs": {"act_type": "tanh"}, 
      "inputs": [[672, 2, 0]]
    }, 
    {
      "op": "elemwise_mul", 
      "name": "_mul453", 
      "inputs": [[676, 0, 0], [677, 0, 0]]
    }, 
    {
      "op": "elemwise_add", 
      "name": "encoder_birnn_forward_l0_t46_state", 
      "inputs": [[675, 0, 0], [678, 0, 0]]
    }, 
    {
      "op": "Activation", 
      "name": "activation226", 
      "attrs": {"act_type": "tanh"}, 
      "inputs": [[679, 0, 0]]
    }, 
    {
      "op": "elemwise_mul", 
      "name": "encoder_birnn_forward_l0_t46_out", 
      "inputs": [[673, 0, 0], [680, 0, 0]]
    }, 
    {
      "op": "expand_dims", 
      "name": "expand_dims289", 
      "attrs": {"axis": "0"}, 
      "inputs": [[681, 0, 0]]
    }, 
    {
      "op": "FullyConnected", 
      "name": "encoder_birnn_forward_l0_t47_i2h", 
      "attrs": {"num_hidden": "1024"}, 
      "inputs": [[18, 47, 0], [19, 0, 0], [20, 0, 0]]
    }, 
    {
      "op": "FullyConnected", 
      "name": "encoder_birnn_forward_l0_t47_h2h", 
      "attrs": {"num_hidden": "1024"}, 
      "inputs": [[681, 0, 0], [23, 0, 0], [24, 0, 0]]
    }, 
    {
      "op": "elemwise_add", 
      "name": "_plus227", 
      "inputs": [[683, 0, 0], [684, 0, 0]]
    }, 
    {
      "op": "SliceChannel", 
      "name": "encoder_birnn_forward_l0_t47_slice", 
      "attrs": {"num_outputs": "4"}, 
      "inputs": [[685, 0, 0]]
    }, 
    {
      "op": "Activation", 
      "name": "encoder_birnn_forward_l0_t47_o", 
      "attrs": {"act_type": "sigmoid"}, 
      "inputs": [[686, 3, 0]]
    }, 
    {
      "op": "Activation", 
      "name": "encoder_birnn_forward_l0_t47_f", 
      "attrs": {"act_type": "sigmoid"}, 
      "inputs": [[686, 1, 0]]
    }, 
    {
      "op": "elemwise_mul", 
      "name": "_mul454", 
      "inputs": [[688, 0, 0], [679, 0, 0]]
    }, 
    {
      "op": "Activation", 
      "name": "encoder_birnn_forward_l0_t47_i", 
      "attrs": {"act_type": "sigmoid"}, 
      "inputs": [[686, 0, 0]]
    }, 
    {
      "op": "Activation", 
      "name": "encoder_birnn_forward_l0_t47_c", 
      "attrs": {"act_type": "tanh"}, 
      "inputs": [[686, 2, 0]]
    }, 
    {
      "op": "elemwise_mul", 
      "name": "_mul455", 
      "inputs": [[690, 0, 0], [691, 0, 0]]
    }, 
    {
      "op": "elemwise_add", 
      "name": "encoder_birnn_forward_l0_t47_state", 
      "inputs": [[689, 0, 0], [692, 0, 0]]
    }, 
    {
      "op": "Activation", 
      "name": "activation227", 
      "attrs": {"act_type": "tanh"}, 
      "inputs": [[693, 0, 0]]
    }, 
    {
      "op": "elemwise_mul", 
      "name": "encoder_birnn_forward_l0_t47_out", 
      "inputs": [[687, 0, 0], [694, 0, 0]]
    }, 
    {
      "op": "expand_dims", 
      "name": "expand_dims290", 
      "attrs": {"axis": "0"}, 
      "inputs": [[695, 0, 0]]
    }, 
    {
      "op": "FullyConnected", 
      "name": "encoder_birnn_forward_l0_t48_i2h", 
      "attrs": {"num_hidden": "1024"}, 
      "inputs": [[18, 48, 0], [19, 0, 0], [20, 0, 0]]
    }, 
    {
      "op": "FullyConnected", 
      "name": "encoder_birnn_forward_l0_t48_h2h", 
      "attrs": {"num_hidden": "1024"}, 
      "inputs": [[695, 0, 0], [23, 0, 0], [24, 0, 0]]
    }, 
    {
      "op": "elemwise_add", 
      "name": "_plus228", 
      "inputs": [[697, 0, 0], [698, 0, 0]]
    }, 
    {
      "op": "SliceChannel", 
      "name": "encoder_birnn_forward_l0_t48_slice", 
      "attrs": {"num_outputs": "4"}, 
      "inputs": [[699, 0, 0]]
    }, 
    {
      "op": "Activation", 
      "name": "encoder_birnn_forward_l0_t48_o", 
      "attrs": {"act_type": "sigmoid"}, 
      "inputs": [[700, 3, 0]]
    }, 
    {
      "op": "Activation", 
      "name": "encoder_birnn_forward_l0_t48_f", 
      "attrs": {"act_type": "sigmoid"}, 
      "inputs": [[700, 1, 0]]
    }, 
    {
      "op": "elemwise_mul", 
      "name": "_mul456", 
      "inputs": [[702, 0, 0], [693, 0, 0]]
    }, 
    {
      "op": "Activation", 
      "name": "encoder_birnn_forward_l0_t48_i", 
      "attrs": {"act_type": "sigmoid"}, 
      "inputs": [[700, 0, 0]]
    }, 
    {
      "op": "Activation", 
      "name": "encoder_birnn_forward_l0_t48_c", 
      "attrs": {"act_type": "tanh"}, 
      "inputs": [[700, 2, 0]]
    }, 
    {
      "op": "elemwise_mul", 
      "name": "_mul457", 
      "inputs": [[704, 0, 0], [705, 0, 0]]
    }, 
    {
      "op": "elemwise_add", 
      "name": "encoder_birnn_forward_l0_t48_state", 
      "inputs": [[703, 0, 0], [706, 0, 0]]
    }, 
    {
      "op": "Activation", 
      "name": "activation228", 
      "attrs": {"act_type": "tanh"}, 
      "inputs": [[707, 0, 0]]
    }, 
    {
      "op": "elemwise_mul", 
      "name": "encoder_birnn_forward_l0_t48_out", 
      "inputs": [[701, 0, 0], [708, 0, 0]]
    }, 
    {
      "op": "expand_dims", 
      "name": "expand_dims291", 
      "attrs": {"axis": "0"}, 
      "inputs": [[709, 0, 0]]
    }, 
    {
      "op": "FullyConnected", 
      "name": "encoder_birnn_forward_l0_t49_i2h", 
      "attrs": {"num_hidden": "1024"}, 
      "inputs": [[18, 49, 0], [19, 0, 0], [20, 0, 0]]
    }, 
    {
      "op": "FullyConnected", 
      "name": "encoder_birnn_forward_l0_t49_h2h", 
      "attrs": {"num_hidden": "1024"}, 
      "inputs": [[709, 0, 0], [23, 0, 0], [24, 0, 0]]
    }, 
    {
      "op": "elemwise_add", 
      "name": "_plus229", 
      "inputs": [[711, 0, 0], [712, 0, 0]]
    }, 
    {
      "op": "SliceChannel", 
      "name": "encoder_birnn_forward_l0_t49_slice", 
      "attrs": {"num_outputs": "4"}, 
      "inputs": [[713, 0, 0]]
    }, 
    {
      "op": "Activation", 
      "name": "encoder_birnn_forward_l0_t49_o", 
      "attrs": {"act_type": "sigmoid"}, 
      "inputs": [[714, 3, 0]]
    }, 
    {
      "op": "Activation", 
      "name": "encoder_birnn_forward_l0_t49_f", 
      "attrs": {"act_type": "sigmoid"}, 
      "inputs": [[714, 1, 0]]
    }, 
    {
      "op": "elemwise_mul", 
      "name": "_mul458", 
      "inputs": [[716, 0, 0], [707, 0, 0]]
    }, 
    {
      "op": "Activation", 
      "name": "encoder_birnn_forward_l0_t49_i", 
      "attrs": {"act_type": "sigmoid"}, 
      "inputs": [[714, 0, 0]]
    }, 
    {
      "op": "Activation", 
      "name": "encoder_birnn_forward_l0_t49_c", 
      "attrs": {"act_type": "tanh"}, 
      "inputs": [[714, 2, 0]]
    }, 
    {
      "op": "elemwise_mul", 
      "name": "_mul459", 
      "inputs": [[718, 0, 0], [719, 0, 0]]
    }, 
    {
      "op": "elemwise_add", 
      "name": "encoder_birnn_forward_l0_t49_state", 
      "inputs": [[717, 0, 0], [720, 0, 0]]
    }, 
    {
      "op": "Activation", 
      "name": "activation229", 
      "attrs": {"act_type": "tanh"}, 
      "inputs": [[721, 0, 0]]
    }, 
    {
      "op": "elemwise_mul", 
      "name": "encoder_birnn_forward_l0_t49_out", 
      "inputs": [[715, 0, 0], [722, 0, 0]]
    }, 
    {
      "op": "expand_dims", 
      "name": "expand_dims292", 
      "attrs": {"axis": "0"}, 
      "inputs": [[723, 0, 0]]
    }, 
    {
      "op": "FullyConnected", 
      "name": "encoder_birnn_forward_l0_t50_i2h", 
      "attrs": {"num_hidden": "1024"}, 
      "inputs": [[18, 50, 0], [19, 0, 0], [20, 0, 0]]
    }, 
    {
      "op": "FullyConnected", 
      "name": "encoder_birnn_forward_l0_t50_h2h", 
      "attrs": {"num_hidden": "1024"}, 
      "inputs": [[723, 0, 0], [23, 0, 0], [24, 0, 0]]
    }, 
    {
      "op": "elemwise_add", 
      "name": "_plus230", 
      "inputs": [[725, 0, 0], [726, 0, 0]]
    }, 
    {
      "op": "SliceChannel", 
      "name": "encoder_birnn_forward_l0_t50_slice", 
      "attrs": {"num_outputs": "4"}, 
      "inputs": [[727, 0, 0]]
    }, 
    {
      "op": "Activation", 
      "name": "encoder_birnn_forward_l0_t50_o", 
      "attrs": {"act_type": "sigmoid"}, 
      "inputs": [[728, 3, 0]]
    }, 
    {
      "op": "Activation", 
      "name": "encoder_birnn_forward_l0_t50_f", 
      "attrs": {"act_type": "sigmoid"}, 
      "inputs": [[728, 1, 0]]
    }, 
    {
      "op": "elemwise_mul", 
      "name": "_mul460", 
      "inputs": [[730, 0, 0], [721, 0, 0]]
    }, 
    {
      "op": "Activation", 
      "name": "encoder_birnn_forward_l0_t50_i", 
      "attrs": {"act_type": "sigmoid"}, 
      "inputs": [[728, 0, 0]]
    }, 
    {
      "op": "Activation", 
      "name": "encoder_birnn_forward_l0_t50_c", 
      "attrs": {"act_type": "tanh"}, 
      "inputs": [[728, 2, 0]]
    }, 
    {
      "op": "elemwise_mul", 
      "name": "_mul461", 
      "inputs": [[732, 0, 0], [733, 0, 0]]
    }, 
    {
      "op": "elemwise_add", 
      "name": "encoder_birnn_forward_l0_t50_state", 
      "inputs": [[731, 0, 0], [734, 0, 0]]
    }, 
    {
      "op": "Activation", 
      "name": "activation230", 
      "attrs": {"act_type": "tanh"}, 
      "inputs": [[735, 0, 0]]
    }, 
    {
      "op": "elemwise_mul", 
      "name": "encoder_birnn_forward_l0_t50_out", 
      "inputs": [[729, 0, 0], [736, 0, 0]]
    }, 
    {
      "op": "expand_dims", 
      "name": "expand_dims293", 
      "attrs": {"axis": "0"}, 
      "inputs": [[737, 0, 0]]
    }, 
    {
      "op": "FullyConnected", 
      "name": "encoder_birnn_forward_l0_t51_i2h", 
      "attrs": {"num_hidden": "1024"}, 
      "inputs": [[18, 51, 0], [19, 0, 0], [20, 0, 0]]
    }, 
    {
      "op": "FullyConnected", 
      "name": "encoder_birnn_forward_l0_t51_h2h", 
      "attrs": {"num_hidden": "1024"}, 
      "inputs": [[737, 0, 0], [23, 0, 0], [24, 0, 0]]
    }, 
    {
      "op": "elemwise_add", 
      "name": "_plus231", 
      "inputs": [[739, 0, 0], [740, 0, 0]]
    }, 
    {
      "op": "SliceChannel", 
      "name": "encoder_birnn_forward_l0_t51_slice", 
      "attrs": {"num_outputs": "4"}, 
      "inputs": [[741, 0, 0]]
    }, 
    {
      "op": "Activation", 
      "name": "encoder_birnn_forward_l0_t51_o", 
      "attrs": {"act_type": "sigmoid"}, 
      "inputs": [[742, 3, 0]]
    }, 
    {
      "op": "Activation", 
      "name": "encoder_birnn_forward_l0_t51_f", 
      "attrs": {"act_type": "sigmoid"}, 
      "inputs": [[742, 1, 0]]
    }, 
    {
      "op": "elemwise_mul", 
      "name": "_mul462", 
      "inputs": [[744, 0, 0], [735, 0, 0]]
    }, 
    {
      "op": "Activation", 
      "name": "encoder_birnn_forward_l0_t51_i", 
      "attrs": {"act_type": "sigmoid"}, 
      "inputs": [[742, 0, 0]]
    }, 
    {
      "op": "Activation", 
      "name": "encoder_birnn_forward_l0_t51_c", 
      "attrs": {"act_type": "tanh"}, 
      "inputs": [[742, 2, 0]]
    }, 
    {
      "op": "elemwise_mul", 
      "name": "_mul463", 
      "inputs": [[746, 0, 0], [747, 0, 0]]
    }, 
    {
      "op": "elemwise_add", 
      "name": "encoder_birnn_forward_l0_t51_state", 
      "inputs": [[745, 0, 0], [748, 0, 0]]
    }, 
    {
      "op": "Activation", 
      "name": "activation231", 
      "attrs": {"act_type": "tanh"}, 
      "inputs": [[749, 0, 0]]
    }, 
    {
      "op": "elemwise_mul", 
      "name": "encoder_birnn_forward_l0_t51_out", 
      "inputs": [[743, 0, 0], [750, 0, 0]]
    }, 
    {
      "op": "expand_dims", 
      "name": "expand_dims294", 
      "attrs": {"axis": "0"}, 
      "inputs": [[751, 0, 0]]
    }, 
    {
      "op": "FullyConnected", 
      "name": "encoder_birnn_forward_l0_t52_i2h", 
      "attrs": {"num_hidden": "1024"}, 
      "inputs": [[18, 52, 0], [19, 0, 0], [20, 0, 0]]
    }, 
    {
      "op": "FullyConnected", 
      "name": "encoder_birnn_forward_l0_t52_h2h", 
      "attrs": {"num_hidden": "1024"}, 
      "inputs": [[751, 0, 0], [23, 0, 0], [24, 0, 0]]
    }, 
    {
      "op": "elemwise_add", 
      "name": "_plus232", 
      "inputs": [[753, 0, 0], [754, 0, 0]]
    }, 
    {
      "op": "SliceChannel", 
      "name": "encoder_birnn_forward_l0_t52_slice", 
      "attrs": {"num_outputs": "4"}, 
      "inputs": [[755, 0, 0]]
    }, 
    {
      "op": "Activation", 
      "name": "encoder_birnn_forward_l0_t52_o", 
      "attrs": {"act_type": "sigmoid"}, 
      "inputs": [[756, 3, 0]]
    }, 
    {
      "op": "Activation", 
      "name": "encoder_birnn_forward_l0_t52_f", 
      "attrs": {"act_type": "sigmoid"}, 
      "inputs": [[756, 1, 0]]
    }, 
    {
      "op": "elemwise_mul", 
      "name": "_mul464", 
      "inputs": [[758, 0, 0], [749, 0, 0]]
    }, 
    {
      "op": "Activation", 
      "name": "encoder_birnn_forward_l0_t52_i", 
      "attrs": {"act_type": "sigmoid"}, 
      "inputs": [[756, 0, 0]]
    }, 
    {
      "op": "Activation", 
      "name": "encoder_birnn_forward_l0_t52_c", 
      "attrs": {"act_type": "tanh"}, 
      "inputs": [[756, 2, 0]]
    }, 
    {
      "op": "elemwise_mul", 
      "name": "_mul465", 
      "inputs": [[760, 0, 0], [761, 0, 0]]
    }, 
    {
      "op": "elemwise_add", 
      "name": "encoder_birnn_forward_l0_t52_state", 
      "inputs": [[759, 0, 0], [762, 0, 0]]
    }, 
    {
      "op": "Activation", 
      "name": "activation232", 
      "attrs": {"act_type": "tanh"}, 
      "inputs": [[763, 0, 0]]
    }, 
    {
      "op": "elemwise_mul", 
      "name": "encoder_birnn_forward_l0_t52_out", 
      "inputs": [[757, 0, 0], [764, 0, 0]]
    }, 
    {
      "op": "expand_dims", 
      "name": "expand_dims295", 
      "attrs": {"axis": "0"}, 
      "inputs": [[765, 0, 0]]
    }, 
    {
      "op": "FullyConnected", 
      "name": "encoder_birnn_forward_l0_t53_i2h", 
      "attrs": {"num_hidden": "1024"}, 
      "inputs": [[18, 53, 0], [19, 0, 0], [20, 0, 0]]
    }, 
    {
      "op": "FullyConnected", 
      "name": "encoder_birnn_forward_l0_t53_h2h", 
      "attrs": {"num_hidden": "1024"}, 
      "inputs": [[765, 0, 0], [23, 0, 0], [24, 0, 0]]
    }, 
    {
      "op": "elemwise_add", 
      "name": "_plus233", 
      "inputs": [[767, 0, 0], [768, 0, 0]]
    }, 
    {
      "op": "SliceChannel", 
      "name": "encoder_birnn_forward_l0_t53_slice", 
      "attrs": {"num_outputs": "4"}, 
      "inputs": [[769, 0, 0]]
    }, 
    {
      "op": "Activation", 
      "name": "encoder_birnn_forward_l0_t53_o", 
      "attrs": {"act_type": "sigmoid"}, 
      "inputs": [[770, 3, 0]]
    }, 
    {
      "op": "Activation", 
      "name": "encoder_birnn_forward_l0_t53_f", 
      "attrs": {"act_type": "sigmoid"}, 
      "inputs": [[770, 1, 0]]
    }, 
    {
      "op": "elemwise_mul", 
      "name": "_mul466", 
      "inputs": [[772, 0, 0], [763, 0, 0]]
    }, 
    {
      "op": "Activation", 
      "name": "encoder_birnn_forward_l0_t53_i", 
      "attrs": {"act_type": "sigmoid"}, 
      "inputs": [[770, 0, 0]]
    }, 
    {
      "op": "Activation", 
      "name": "encoder_birnn_forward_l0_t53_c", 
      "attrs": {"act_type": "tanh"}, 
      "inputs": [[770, 2, 0]]
    }, 
    {
      "op": "elemwise_mul", 
      "name": "_mul467", 
      "inputs": [[774, 0, 0], [775, 0, 0]]
    }, 
    {
      "op": "elemwise_add", 
      "name": "encoder_birnn_forward_l0_t53_state", 
      "inputs": [[773, 0, 0], [776, 0, 0]]
    }, 
    {
      "op": "Activation", 
      "name": "activation233", 
      "attrs": {"act_type": "tanh"}, 
      "inputs": [[777, 0, 0]]
    }, 
    {
      "op": "elemwise_mul", 
      "name": "encoder_birnn_forward_l0_t53_out", 
      "inputs": [[771, 0, 0], [778, 0, 0]]
    }, 
    {
      "op": "expand_dims", 
      "name": "expand_dims296", 
      "attrs": {"axis": "0"}, 
      "inputs": [[779, 0, 0]]
    }, 
    {
      "op": "FullyConnected", 
      "name": "encoder_birnn_forward_l0_t54_i2h", 
      "attrs": {"num_hidden": "1024"}, 
      "inputs": [[18, 54, 0], [19, 0, 0], [20, 0, 0]]
    }, 
    {
      "op": "FullyConnected", 
      "name": "encoder_birnn_forward_l0_t54_h2h", 
      "attrs": {"num_hidden": "1024"}, 
      "inputs": [[779, 0, 0], [23, 0, 0], [24, 0, 0]]
    }, 
    {
      "op": "elemwise_add", 
      "name": "_plus234", 
      "inputs": [[781, 0, 0], [782, 0, 0]]
    }, 
    {
      "op": "SliceChannel", 
      "name": "encoder_birnn_forward_l0_t54_slice", 
      "attrs": {"num_outputs": "4"}, 
      "inputs": [[783, 0, 0]]
    }, 
    {
      "op": "Activation", 
      "name": "encoder_birnn_forward_l0_t54_o", 
      "attrs": {"act_type": "sigmoid"}, 
      "inputs": [[784, 3, 0]]
    }, 
    {
      "op": "Activation", 
      "name": "encoder_birnn_forward_l0_t54_f", 
      "attrs": {"act_type": "sigmoid"}, 
      "inputs": [[784, 1, 0]]
    }, 
    {
      "op": "elemwise_mul", 
      "name": "_mul468", 
      "inputs": [[786, 0, 0], [777, 0, 0]]
    }, 
    {
      "op": "Activation", 
      "name": "encoder_birnn_forward_l0_t54_i", 
      "attrs": {"act_type": "sigmoid"}, 
      "inputs": [[784, 0, 0]]
    }, 
    {
      "op": "Activation", 
      "name": "encoder_birnn_forward_l0_t54_c", 
      "attrs": {"act_type": "tanh"}, 
      "inputs": [[784, 2, 0]]
    }, 
    {
      "op": "elemwise_mul", 
      "name": "_mul469", 
      "inputs": [[788, 0, 0], [789, 0, 0]]
    }, 
    {
      "op": "elemwise_add", 
      "name": "encoder_birnn_forward_l0_t54_state", 
      "inputs": [[787, 0, 0], [790, 0, 0]]
    }, 
    {
      "op": "Activation", 
      "name": "activation234", 
      "attrs": {"act_type": "tanh"}, 
      "inputs": [[791, 0, 0]]
    }, 
    {
      "op": "elemwise_mul", 
      "name": "encoder_birnn_forward_l0_t54_out", 
      "inputs": [[785, 0, 0], [792, 0, 0]]
    }, 
    {
      "op": "expand_dims", 
      "name": "expand_dims297", 
      "attrs": {"axis": "0"}, 
      "inputs": [[793, 0, 0]]
    }, 
    {
      "op": "FullyConnected", 
      "name": "encoder_birnn_forward_l0_t55_i2h", 
      "attrs": {"num_hidden": "1024"}, 
      "inputs": [[18, 55, 0], [19, 0, 0], [20, 0, 0]]
    }, 
    {
      "op": "FullyConnected", 
      "name": "encoder_birnn_forward_l0_t55_h2h", 
      "attrs": {"num_hidden": "1024"}, 
      "inputs": [[793, 0, 0], [23, 0, 0], [24, 0, 0]]
    }, 
    {
      "op": "elemwise_add", 
      "name": "_plus235", 
      "inputs": [[795, 0, 0], [796, 0, 0]]
    }, 
    {
      "op": "SliceChannel", 
      "name": "encoder_birnn_forward_l0_t55_slice", 
      "attrs": {"num_outputs": "4"}, 
      "inputs": [[797, 0, 0]]
    }, 
    {
      "op": "Activation", 
      "name": "encoder_birnn_forward_l0_t55_o", 
      "attrs": {"act_type": "sigmoid"}, 
      "inputs": [[798, 3, 0]]
    }, 
    {
      "op": "Activation", 
      "name": "encoder_birnn_forward_l0_t55_f", 
      "attrs": {"act_type": "sigmoid"}, 
      "inputs": [[798, 1, 0]]
    }, 
    {
      "op": "elemwise_mul", 
      "name": "_mul470", 
      "inputs": [[800, 0, 0], [791, 0, 0]]
    }, 
    {
      "op": "Activation", 
      "name": "encoder_birnn_forward_l0_t55_i", 
      "attrs": {"act_type": "sigmoid"}, 
      "inputs": [[798, 0, 0]]
    }, 
    {
      "op": "Activation", 
      "name": "encoder_birnn_forward_l0_t55_c", 
      "attrs": {"act_type": "tanh"}, 
      "inputs": [[798, 2, 0]]
    }, 
    {
      "op": "elemwise_mul", 
      "name": "_mul471", 
      "inputs": [[802, 0, 0], [803, 0, 0]]
    }, 
    {
      "op": "elemwise_add", 
      "name": "encoder_birnn_forward_l0_t55_state", 
      "inputs": [[801, 0, 0], [804, 0, 0]]
    }, 
    {
      "op": "Activation", 
      "name": "activation235", 
      "attrs": {"act_type": "tanh"}, 
      "inputs": [[805, 0, 0]]
    }, 
    {
      "op": "elemwise_mul", 
      "name": "encoder_birnn_forward_l0_t55_out", 
      "inputs": [[799, 0, 0], [806, 0, 0]]
    }, 
    {
      "op": "expand_dims", 
      "name": "expand_dims298", 
      "attrs": {"axis": "0"}, 
      "inputs": [[807, 0, 0]]
    }, 
    {
      "op": "FullyConnected", 
      "name": "encoder_birnn_forward_l0_t56_i2h", 
      "attrs": {"num_hidden": "1024"}, 
      "inputs": [[18, 56, 0], [19, 0, 0], [20, 0, 0]]
    }, 
    {
      "op": "FullyConnected", 
      "name": "encoder_birnn_forward_l0_t56_h2h", 
      "attrs": {"num_hidden": "1024"}, 
      "inputs": [[807, 0, 0], [23, 0, 0], [24, 0, 0]]
    }, 
    {
      "op": "elemwise_add", 
      "name": "_plus236", 
      "inputs": [[809, 0, 0], [810, 0, 0]]
    }, 
    {
      "op": "SliceChannel", 
      "name": "encoder_birnn_forward_l0_t56_slice", 
      "attrs": {"num_outputs": "4"}, 
      "inputs": [[811, 0, 0]]
    }, 
    {
      "op": "Activation", 
      "name": "encoder_birnn_forward_l0_t56_o", 
      "attrs": {"act_type": "sigmoid"}, 
      "inputs": [[812, 3, 0]]
    }, 
    {
      "op": "Activation", 
      "name": "encoder_birnn_forward_l0_t56_f", 
      "attrs": {"act_type": "sigmoid"}, 
      "inputs": [[812, 1, 0]]
    }, 
    {
      "op": "elemwise_mul", 
      "name": "_mul472", 
      "inputs": [[814, 0, 0], [805, 0, 0]]
    }, 
    {
      "op": "Activation", 
      "name": "encoder_birnn_forward_l0_t56_i", 
      "attrs": {"act_type": "sigmoid"}, 
      "inputs": [[812, 0, 0]]
    }, 
    {
      "op": "Activation", 
      "name": "encoder_birnn_forward_l0_t56_c", 
      "attrs": {"act_type": "tanh"}, 
      "inputs": [[812, 2, 0]]
    }, 
    {
      "op": "elemwise_mul", 
      "name": "_mul473", 
      "inputs": [[816, 0, 0], [817, 0, 0]]
    }, 
    {
      "op": "elemwise_add", 
      "name": "encoder_birnn_forward_l0_t56_state", 
      "inputs": [[815, 0, 0], [818, 0, 0]]
    }, 
    {
      "op": "Activation", 
      "name": "activation236", 
      "attrs": {"act_type": "tanh"}, 
      "inputs": [[819, 0, 0]]
    }, 
    {
      "op": "elemwise_mul", 
      "name": "encoder_birnn_forward_l0_t56_out", 
      "inputs": [[813, 0, 0], [820, 0, 0]]
    }, 
    {
      "op": "expand_dims", 
      "name": "expand_dims299", 
      "attrs": {"axis": "0"}, 
      "inputs": [[821, 0, 0]]
    }, 
    {
      "op": "FullyConnected", 
      "name": "encoder_birnn_forward_l0_t57_i2h", 
      "attrs": {"num_hidden": "1024"}, 
      "inputs": [[18, 57, 0], [19, 0, 0], [20, 0, 0]]
    }, 
    {
      "op": "FullyConnected", 
      "name": "encoder_birnn_forward_l0_t57_h2h", 
      "attrs": {"num_hidden": "1024"}, 
      "inputs": [[821, 0, 0], [23, 0, 0], [24, 0, 0]]
    }, 
    {
      "op": "elemwise_add", 
      "name": "_plus237", 
      "inputs": [[823, 0, 0], [824, 0, 0]]
    }, 
    {
      "op": "SliceChannel", 
      "name": "encoder_birnn_forward_l0_t57_slice", 
      "attrs": {"num_outputs": "4"}, 
      "inputs": [[825, 0, 0]]
    }, 
    {
      "op": "Activation", 
      "name": "encoder_birnn_forward_l0_t57_o", 
      "attrs": {"act_type": "sigmoid"}, 
      "inputs": [[826, 3, 0]]
    }, 
    {
      "op": "Activation", 
      "name": "encoder_birnn_forward_l0_t57_f", 
      "attrs": {"act_type": "sigmoid"}, 
      "inputs": [[826, 1, 0]]
    }, 
    {
      "op": "elemwise_mul", 
      "name": "_mul474", 
      "inputs": [[828, 0, 0], [819, 0, 0]]
    }, 
    {
      "op": "Activation", 
      "name": "encoder_birnn_forward_l0_t57_i", 
      "attrs": {"act_type": "sigmoid"}, 
      "inputs": [[826, 0, 0]]
    }, 
    {
      "op": "Activation", 
      "name": "encoder_birnn_forward_l0_t57_c", 
      "attrs": {"act_type": "tanh"}, 
      "inputs": [[826, 2, 0]]
    }, 
    {
      "op": "elemwise_mul", 
      "name": "_mul475", 
      "inputs": [[830, 0, 0], [831, 0, 0]]
    }, 
    {
      "op": "elemwise_add", 
      "name": "encoder_birnn_forward_l0_t57_state", 
      "inputs": [[829, 0, 0], [832, 0, 0]]
    }, 
    {
      "op": "Activation", 
      "name": "activation237", 
      "attrs": {"act_type": "tanh"}, 
      "inputs": [[833, 0, 0]]
    }, 
    {
      "op": "elemwise_mul", 
      "name": "encoder_birnn_forward_l0_t57_out", 
      "inputs": [[827, 0, 0], [834, 0, 0]]
    }, 
    {
      "op": "expand_dims", 
      "name": "expand_dims300", 
      "attrs": {"axis": "0"}, 
      "inputs": [[835, 0, 0]]
    }, 
    {
      "op": "FullyConnected", 
      "name": "encoder_birnn_forward_l0_t58_i2h", 
      "attrs": {"num_hidden": "1024"}, 
      "inputs": [[18, 58, 0], [19, 0, 0], [20, 0, 0]]
    }, 
    {
      "op": "FullyConnected", 
      "name": "encoder_birnn_forward_l0_t58_h2h", 
      "attrs": {"num_hidden": "1024"}, 
      "inputs": [[835, 0, 0], [23, 0, 0], [24, 0, 0]]
    }, 
    {
      "op": "elemwise_add", 
      "name": "_plus238", 
      "inputs": [[837, 0, 0], [838, 0, 0]]
    }, 
    {
      "op": "SliceChannel", 
      "name": "encoder_birnn_forward_l0_t58_slice", 
      "attrs": {"num_outputs": "4"}, 
      "inputs": [[839, 0, 0]]
    }, 
    {
      "op": "Activation", 
      "name": "encoder_birnn_forward_l0_t58_o", 
      "attrs": {"act_type": "sigmoid"}, 
      "inputs": [[840, 3, 0]]
    }, 
    {
      "op": "Activation", 
      "name": "encoder_birnn_forward_l0_t58_f", 
      "attrs": {"act_type": "sigmoid"}, 
      "inputs": [[840, 1, 0]]
    }, 
    {
      "op": "elemwise_mul", 
      "name": "_mul476", 
      "inputs": [[842, 0, 0], [833, 0, 0]]
    }, 
    {
      "op": "Activation", 
      "name": "encoder_birnn_forward_l0_t58_i", 
      "attrs": {"act_type": "sigmoid"}, 
      "inputs": [[840, 0, 0]]
    }, 
    {
      "op": "Activation", 
      "name": "encoder_birnn_forward_l0_t58_c", 
      "attrs": {"act_type": "tanh"}, 
      "inputs": [[840, 2, 0]]
    }, 
    {
      "op": "elemwise_mul", 
      "name": "_mul477", 
      "inputs": [[844, 0, 0], [845, 0, 0]]
    }, 
    {
      "op": "elemwise_add", 
      "name": "encoder_birnn_forward_l0_t58_state", 
      "inputs": [[843, 0, 0], [846, 0, 0]]
    }, 
    {
      "op": "Activation", 
      "name": "activation238", 
      "attrs": {"act_type": "tanh"}, 
      "inputs": [[847, 0, 0]]
    }, 
    {
      "op": "elemwise_mul", 
      "name": "encoder_birnn_forward_l0_t58_out", 
      "inputs": [[841, 0, 0], [848, 0, 0]]
    }, 
    {
      "op": "expand_dims", 
      "name": "expand_dims301", 
      "attrs": {"axis": "0"}, 
      "inputs": [[849, 0, 0]]
    }, 
    {
      "op": "FullyConnected", 
      "name": "encoder_birnn_forward_l0_t59_i2h", 
      "attrs": {"num_hidden": "1024"}, 
      "inputs": [[18, 59, 0], [19, 0, 0], [20, 0, 0]]
    }, 
    {
      "op": "FullyConnected", 
      "name": "encoder_birnn_forward_l0_t59_h2h", 
      "attrs": {"num_hidden": "1024"}, 
      "inputs": [[849, 0, 0], [23, 0, 0], [24, 0, 0]]
    }, 
    {
      "op": "elemwise_add", 
      "name": "_plus239", 
      "inputs": [[851, 0, 0], [852, 0, 0]]
    }, 
    {
      "op": "SliceChannel", 
      "name": "encoder_birnn_forward_l0_t59_slice", 
      "attrs": {"num_outputs": "4"}, 
      "inputs": [[853, 0, 0]]
    }, 
    {
      "op": "Activation", 
      "name": "encoder_birnn_forward_l0_t59_o", 
      "attrs": {"act_type": "sigmoid"}, 
      "inputs": [[854, 3, 0]]
    }, 
    {
      "op": "Activation", 
      "name": "encoder_birnn_forward_l0_t59_f", 
      "attrs": {"act_type": "sigmoid"}, 
      "inputs": [[854, 1, 0]]
    }, 
    {
      "op": "elemwise_mul", 
      "name": "_mul478", 
      "inputs": [[856, 0, 0], [847, 0, 0]]
    }, 
    {
      "op": "Activation", 
      "name": "encoder_birnn_forward_l0_t59_i", 
      "attrs": {"act_type": "sigmoid"}, 
      "inputs": [[854, 0, 0]]
    }, 
    {
      "op": "Activation", 
      "name": "encoder_birnn_forward_l0_t59_c", 
      "attrs": {"act_type": "tanh"}, 
      "inputs": [[854, 2, 0]]
    }, 
    {
      "op": "elemwise_mul", 
      "name": "_mul479", 
      "inputs": [[858, 0, 0], [859, 0, 0]]
    }, 
    {
      "op": "elemwise_add", 
      "name": "encoder_birnn_forward_l0_t59_state", 
      "inputs": [[857, 0, 0], [860, 0, 0]]
    }, 
    {
      "op": "Activation", 
      "name": "activation239", 
      "attrs": {"act_type": "tanh"}, 
      "inputs": [[861, 0, 0]]
    }, 
    {
      "op": "elemwise_mul", 
      "name": "encoder_birnn_forward_l0_t59_out", 
      "inputs": [[855, 0, 0], [862, 0, 0]]
    }, 
    {
      "op": "expand_dims", 
      "name": "expand_dims302", 
      "attrs": {"axis": "0"}, 
      "inputs": [[863, 0, 0]]
    }, 
    {
      "op": "Concat", 
      "name": "concat2", 
      "attrs": {
        "dim": "0", 
        "num_args": "60"
      }, 
      "inputs": [
        [38, 0, 0], 
        [52, 0, 0], 
        [66, 0, 0], 
        [80, 0, 0], 
        [94, 0, 0], 
        [108, 0, 0], 
        [122, 0, 0], 
        [136, 0, 0], 
        [150, 0, 0], 
        [164, 0, 0], 
        [178, 0, 0], 
        [192, 0, 0], 
        [206, 0, 0], 
        [220, 0, 0], 
        [234, 0, 0], 
        [248, 0, 0], 
        [262, 0, 0], 
        [276, 0, 0], 
        [290, 0, 0], 
        [304, 0, 0], 
        [318, 0, 0], 
        [332, 0, 0], 
        [346, 0, 0], 
        [360, 0, 0], 
        [374, 0, 0], 
        [388, 0, 0], 
        [402, 0, 0], 
        [416, 0, 0], 
        [430, 0, 0], 
        [444, 0, 0], 
        [458, 0, 0], 
        [472, 0, 0], 
        [486, 0, 0], 
        [500, 0, 0], 
        [514, 0, 0], 
        [528, 0, 0], 
        [542, 0, 0], 
        [556, 0, 0], 
        [570, 0, 0], 
        [584, 0, 0], 
        [598, 0, 0], 
        [612, 0, 0], 
        [626, 0, 0], 
        [640, 0, 0], 
        [654, 0, 0], 
        [668, 0, 0], 
        [682, 0, 0], 
        [696, 0, 0], 
        [710, 0, 0], 
        [724, 0, 0], 
        [738, 0, 0], 
        [752, 0, 0], 
        [766, 0, 0], 
        [780, 0, 0], 
        [794, 0, 0], 
        [808, 0, 0], 
        [822, 0, 0], 
        [836, 0, 0], 
        [850, 0, 0], 
        [864, 0, 0]
      ]
    }, 
    {
      "op": "SequenceReverse", 
      "name": "sequencereverse2", 
      "attrs": {"use_sequence_length": "True"}, 
      "inputs": [[17, 0, 0], [7, 0, 0]]
    }, 
    {
      "op": "SliceChannel", 
      "name": "split4", 
      "attrs": {
        "axis": "0", 
        "num_outputs": "60", 
        "squeeze_axis": "1"
      }, 
      "inputs": [[866, 0, 0]]
    }, 
    {
      "op": "null", 
      "name": "encoder_birnn_reverse_l0_i2h_weight", 
      "inputs": []
    }, 
    {
      "op": "null", 
      "name": "encoder_birnn_reverse_l0_i2h_bias", 
      "attrs": {"__init__": "[\"lstmbias\", {\"forget_bias\": 0.0}]"}, 
      "inputs": []
    }, 
    {
      "op": "FullyConnected", 
      "name": "encoder_birnn_reverse_l0_t0_i2h", 
      "attrs": {"num_hidden": "1024"}, 
      "inputs": [[867, 0, 0], [868, 0, 0], [869, 0, 0]]
    }, 
    {
      "op": "_zeros", 
      "name": "encoder_birnn_reverse_l0_begin_state_0", 
      "attrs": {
        "__layout__": "NC", 
        "dtype": "float32", 
        "shape": "(0, 256)"
      }, 
      "inputs": []
    }, 
    {
      "op": "null", 
      "name": "encoder_birnn_reverse_l0_h2h_weight", 
      "inputs": []
    }, 
    {
      "op": "null", 
      "name": "encoder_birnn_reverse_l0_h2h_bias", 
      "inputs": []
    }, 
    {
      "op": "FullyConnected", 
      "name": "encoder_birnn_reverse_l0_t0_h2h", 
      "attrs": {"num_hidden": "1024"}, 
      "inputs": [[871, 0, 0], [872, 0, 0], [873, 0, 0]]
    }, 
    {
      "op": "elemwise_add", 
      "name": "_plus240", 
      "inputs": [[870, 0, 0], [874, 0, 0]]
    }, 
    {
      "op": "SliceChannel", 
      "name": "encoder_birnn_reverse_l0_t0_slice", 
      "attrs": {"num_outputs": "4"}, 
      "inputs": [[875, 0, 0]]
    }, 
    {
      "op": "Activation", 
      "name": "encoder_birnn_reverse_l0_t0_o", 
      "attrs": {"act_type": "sigmoid"}, 
      "inputs": [[876, 3, 0]]
    }, 
    {
      "op": "Activation", 
      "name": "encoder_birnn_reverse_l0_t0_f", 
      "attrs": {"act_type": "sigmoid"}, 
      "inputs": [[876, 1, 0]]
    }, 
    {
      "op": "_zeros", 
      "name": "encoder_birnn_reverse_l0_begin_state_1", 
      "attrs": {
        "__layout__": "NC", 
        "dtype": "float32", 
        "shape": "(0, 256)"
      }, 
      "inputs": []
    }, 
    {
      "op": "elemwise_mul", 
      "name": "_mul480", 
      "inputs": [[878, 0, 0], [879, 0, 0]]
    }, 
    {
      "op": "Activation", 
      "name": "encoder_birnn_reverse_l0_t0_i", 
      "attrs": {"act_type": "sigmoid"}, 
      "inputs": [[876, 0, 0]]
    }, 
    {
      "op": "Activation", 
      "name": "encoder_birnn_reverse_l0_t0_c", 
      "attrs": {"act_type": "tanh"}, 
      "inputs": [[876, 2, 0]]
    }, 
    {
      "op": "elemwise_mul", 
      "name": "_mul481", 
      "inputs": [[881, 0, 0], [882, 0, 0]]
    }, 
    {
      "op": "elemwise_add", 
      "name": "encoder_birnn_reverse_l0_t0_state", 
      "inputs": [[880, 0, 0], [883, 0, 0]]
    }, 
    {
      "op": "Activation", 
      "name": "activation240", 
      "attrs": {"act_type": "tanh"}, 
      "inputs": [[884, 0, 0]]
    }, 
    {
      "op": "elemwise_mul", 
      "name": "encoder_birnn_reverse_l0_t0_out", 
      "inputs": [[877, 0, 0], [885, 0, 0]]
    }, 
    {
      "op": "expand_dims", 
      "name": "expand_dims303", 
      "attrs": {"axis": "0"}, 
      "inputs": [[886, 0, 0]]
    }, 
    {
      "op": "FullyConnected", 
      "name": "encoder_birnn_reverse_l0_t1_i2h", 
      "attrs": {"num_hidden": "1024"}, 
      "inputs": [[867, 1, 0], [868, 0, 0], [869, 0, 0]]
    }, 
    {
      "op": "FullyConnected", 
      "name": "encoder_birnn_reverse_l0_t1_h2h", 
      "attrs": {"num_hidden": "1024"}, 
      "inputs": [[886, 0, 0], [872, 0, 0], [873, 0, 0]]
    }, 
    {
      "op": "elemwise_add", 
      "name": "_plus241", 
      "inputs": [[888, 0, 0], [889, 0, 0]]
    }, 
    {
      "op": "SliceChannel", 
      "name": "encoder_birnn_reverse_l0_t1_slice", 
      "attrs": {"num_outputs": "4"}, 
      "inputs": [[890, 0, 0]]
    }, 
    {
      "op": "Activation", 
      "name": "encoder_birnn_reverse_l0_t1_o", 
      "attrs": {"act_type": "sigmoid"}, 
      "inputs": [[891, 3, 0]]
    }, 
    {
      "op": "Activation", 
      "name": "encoder_birnn_reverse_l0_t1_f", 
      "attrs": {"act_type": "sigmoid"}, 
      "inputs": [[891, 1, 0]]
    }, 
    {
      "op": "elemwise_mul", 
      "name": "_mul482", 
      "inputs": [[893, 0, 0], [884, 0, 0]]
    }, 
    {
      "op": "Activation", 
      "name": "encoder_birnn_reverse_l0_t1_i", 
      "attrs": {"act_type": "sigmoid"}, 
      "inputs": [[891, 0, 0]]
    }, 
    {
      "op": "Activation", 
      "name": "encoder_birnn_reverse_l0_t1_c", 
      "attrs": {"act_type": "tanh"}, 
      "inputs": [[891, 2, 0]]
    }, 
    {
      "op": "elemwise_mul", 
      "name": "_mul483", 
      "inputs": [[895, 0, 0], [896, 0, 0]]
    }, 
    {
      "op": "elemwise_add", 
      "name": "encoder_birnn_reverse_l0_t1_state", 
      "inputs": [[894, 0, 0], [897, 0, 0]]
    }, 
    {
      "op": "Activation", 
      "name": "activation241", 
      "attrs": {"act_type": "tanh"}, 
      "inputs": [[898, 0, 0]]
    }, 
    {
      "op": "elemwise_mul", 
      "name": "encoder_birnn_reverse_l0_t1_out", 
      "inputs": [[892, 0, 0], [899, 0, 0]]
    }, 
    {
      "op": "expand_dims", 
      "name": "expand_dims304", 
      "attrs": {"axis": "0"}, 
      "inputs": [[900, 0, 0]]
    }, 
    {
      "op": "FullyConnected", 
      "name": "encoder_birnn_reverse_l0_t2_i2h", 
      "attrs": {"num_hidden": "1024"}, 
      "inputs": [[867, 2, 0], [868, 0, 0], [869, 0, 0]]
    }, 
    {
      "op": "FullyConnected", 
      "name": "encoder_birnn_reverse_l0_t2_h2h", 
      "attrs": {"num_hidden": "1024"}, 
      "inputs": [[900, 0, 0], [872, 0, 0], [873, 0, 0]]
    }, 
    {
      "op": "elemwise_add", 
      "name": "_plus242", 
      "inputs": [[902, 0, 0], [903, 0, 0]]
    }, 
    {
      "op": "SliceChannel", 
      "name": "encoder_birnn_reverse_l0_t2_slice", 
      "attrs": {"num_outputs": "4"}, 
      "inputs": [[904, 0, 0]]
    }, 
    {
      "op": "Activation", 
      "name": "encoder_birnn_reverse_l0_t2_o", 
      "attrs": {"act_type": "sigmoid"}, 
      "inputs": [[905, 3, 0]]
    }, 
    {
      "op": "Activation", 
      "name": "encoder_birnn_reverse_l0_t2_f", 
      "attrs": {"act_type": "sigmoid"}, 
      "inputs": [[905, 1, 0]]
    }, 
    {
      "op": "elemwise_mul", 
      "name": "_mul484", 
      "inputs": [[907, 0, 0], [898, 0, 0]]
    }, 
    {
      "op": "Activation", 
      "name": "encoder_birnn_reverse_l0_t2_i", 
      "attrs": {"act_type": "sigmoid"}, 
      "inputs": [[905, 0, 0]]
    }, 
    {
      "op": "Activation", 
      "name": "encoder_birnn_reverse_l0_t2_c", 
      "attrs": {"act_type": "tanh"}, 
      "inputs": [[905, 2, 0]]
    }, 
    {
      "op": "elemwise_mul", 
      "name": "_mul485", 
      "inputs": [[909, 0, 0], [910, 0, 0]]
    }, 
    {
      "op": "elemwise_add", 
      "name": "encoder_birnn_reverse_l0_t2_state", 
      "inputs": [[908, 0, 0], [911, 0, 0]]
    }, 
    {
      "op": "Activation", 
      "name": "activation242", 
      "attrs": {"act_type": "tanh"}, 
      "inputs": [[912, 0, 0]]
    }, 
    {
      "op": "elemwise_mul", 
      "name": "encoder_birnn_reverse_l0_t2_out", 
      "inputs": [[906, 0, 0], [913, 0, 0]]
    }, 
    {
      "op": "expand_dims", 
      "name": "expand_dims305", 
      "attrs": {"axis": "0"}, 
      "inputs": [[914, 0, 0]]
    }, 
    {
      "op": "FullyConnected", 
      "name": "encoder_birnn_reverse_l0_t3_i2h", 
      "attrs": {"num_hidden": "1024"}, 
      "inputs": [[867, 3, 0], [868, 0, 0], [869, 0, 0]]
    }, 
    {
      "op": "FullyConnected", 
      "name": "encoder_birnn_reverse_l0_t3_h2h", 
      "attrs": {"num_hidden": "1024"}, 
      "inputs": [[914, 0, 0], [872, 0, 0], [873, 0, 0]]
    }, 
    {
      "op": "elemwise_add", 
      "name": "_plus243", 
      "inputs": [[916, 0, 0], [917, 0, 0]]
    }, 
    {
      "op": "SliceChannel", 
      "name": "encoder_birnn_reverse_l0_t3_slice", 
      "attrs": {"num_outputs": "4"}, 
      "inputs": [[918, 0, 0]]
    }, 
    {
      "op": "Activation", 
      "name": "encoder_birnn_reverse_l0_t3_o", 
      "attrs": {"act_type": "sigmoid"}, 
      "inputs": [[919, 3, 0]]
    }, 
    {
      "op": "Activation", 
      "name": "encoder_birnn_reverse_l0_t3_f", 
      "attrs": {"act_type": "sigmoid"}, 
      "inputs": [[919, 1, 0]]
    }, 
    {
      "op": "elemwise_mul", 
      "name": "_mul486", 
      "inputs": [[921, 0, 0], [912, 0, 0]]
    }, 
    {
      "op": "Activation", 
      "name": "encoder_birnn_reverse_l0_t3_i", 
      "attrs": {"act_type": "sigmoid"}, 
      "inputs": [[919, 0, 0]]
    }, 
    {
      "op": "Activation", 
      "name": "encoder_birnn_reverse_l0_t3_c", 
      "attrs": {"act_type": "tanh"}, 
      "inputs": [[919, 2, 0]]
    }, 
    {
      "op": "elemwise_mul", 
      "name": "_mul487", 
      "inputs": [[923, 0, 0], [924, 0, 0]]
    }, 
    {
      "op": "elemwise_add", 
      "name": "encoder_birnn_reverse_l0_t3_state", 
      "inputs": [[922, 0, 0], [925, 0, 0]]
    }, 
    {
      "op": "Activation", 
      "name": "activation243", 
      "attrs": {"act_type": "tanh"}, 
      "inputs": [[926, 0, 0]]
    }, 
    {
      "op": "elemwise_mul", 
      "name": "encoder_birnn_reverse_l0_t3_out", 
      "inputs": [[920, 0, 0], [927, 0, 0]]
    }, 
    {
      "op": "expand_dims", 
      "name": "expand_dims306", 
      "attrs": {"axis": "0"}, 
      "inputs": [[928, 0, 0]]
    }, 
    {
      "op": "FullyConnected", 
      "name": "encoder_birnn_reverse_l0_t4_i2h", 
      "attrs": {"num_hidden": "1024"}, 
      "inputs": [[867, 4, 0], [868, 0, 0], [869, 0, 0]]
    }, 
    {
      "op": "FullyConnected", 
      "name": "encoder_birnn_reverse_l0_t4_h2h", 
      "attrs": {"num_hidden": "1024"}, 
      "inputs": [[928, 0, 0], [872, 0, 0], [873, 0, 0]]
    }, 
    {
      "op": "elemwise_add", 
      "name": "_plus244", 
      "inputs": [[930, 0, 0], [931, 0, 0]]
    }, 
    {
      "op": "SliceChannel", 
      "name": "encoder_birnn_reverse_l0_t4_slice", 
      "attrs": {"num_outputs": "4"}, 
      "inputs": [[932, 0, 0]]
    }, 
    {
      "op": "Activation", 
      "name": "encoder_birnn_reverse_l0_t4_o", 
      "attrs": {"act_type": "sigmoid"}, 
      "inputs": [[933, 3, 0]]
    }, 
    {
      "op": "Activation", 
      "name": "encoder_birnn_reverse_l0_t4_f", 
      "attrs": {"act_type": "sigmoid"}, 
      "inputs": [[933, 1, 0]]
    }, 
    {
      "op": "elemwise_mul", 
      "name": "_mul488", 
      "inputs": [[935, 0, 0], [926, 0, 0]]
    }, 
    {
      "op": "Activation", 
      "name": "encoder_birnn_reverse_l0_t4_i", 
      "attrs": {"act_type": "sigmoid"}, 
      "inputs": [[933, 0, 0]]
    }, 
    {
      "op": "Activation", 
      "name": "encoder_birnn_reverse_l0_t4_c", 
      "attrs": {"act_type": "tanh"}, 
      "inputs": [[933, 2, 0]]
    }, 
    {
      "op": "elemwise_mul", 
      "name": "_mul489", 
      "inputs": [[937, 0, 0], [938, 0, 0]]
    }, 
    {
      "op": "elemwise_add", 
      "name": "encoder_birnn_reverse_l0_t4_state", 
      "inputs": [[936, 0, 0], [939, 0, 0]]
    }, 
    {
      "op": "Activation", 
      "name": "activation244", 
      "attrs": {"act_type": "tanh"}, 
      "inputs": [[940, 0, 0]]
    }, 
    {
      "op": "elemwise_mul", 
      "name": "encoder_birnn_reverse_l0_t4_out", 
      "inputs": [[934, 0, 0], [941, 0, 0]]
    }, 
    {
      "op": "expand_dims", 
      "name": "expand_dims307", 
      "attrs": {"axis": "0"}, 
      "inputs": [[942, 0, 0]]
    }, 
    {
      "op": "FullyConnected", 
      "name": "encoder_birnn_reverse_l0_t5_i2h", 
      "attrs": {"num_hidden": "1024"}, 
      "inputs": [[867, 5, 0], [868, 0, 0], [869, 0, 0]]
    }, 
    {
      "op": "FullyConnected", 
      "name": "encoder_birnn_reverse_l0_t5_h2h", 
      "attrs": {"num_hidden": "1024"}, 
      "inputs": [[942, 0, 0], [872, 0, 0], [873, 0, 0]]
    }, 
    {
      "op": "elemwise_add", 
      "name": "_plus245", 
      "inputs": [[944, 0, 0], [945, 0, 0]]
    }, 
    {
      "op": "SliceChannel", 
      "name": "encoder_birnn_reverse_l0_t5_slice", 
      "attrs": {"num_outputs": "4"}, 
      "inputs": [[946, 0, 0]]
    }, 
    {
      "op": "Activation", 
      "name": "encoder_birnn_reverse_l0_t5_o", 
      "attrs": {"act_type": "sigmoid"}, 
      "inputs": [[947, 3, 0]]
    }, 
    {
      "op": "Activation", 
      "name": "encoder_birnn_reverse_l0_t5_f", 
      "attrs": {"act_type": "sigmoid"}, 
      "inputs": [[947, 1, 0]]
    }, 
    {
      "op": "elemwise_mul", 
      "name": "_mul490", 
      "inputs": [[949, 0, 0], [940, 0, 0]]
    }, 
    {
      "op": "Activation", 
      "name": "encoder_birnn_reverse_l0_t5_i", 
      "attrs": {"act_type": "sigmoid"}, 
      "inputs": [[947, 0, 0]]
    }, 
    {
      "op": "Activation", 
      "name": "encoder_birnn_reverse_l0_t5_c", 
      "attrs": {"act_type": "tanh"}, 
      "inputs": [[947, 2, 0]]
    }, 
    {
      "op": "elemwise_mul", 
      "name": "_mul491", 
      "inputs": [[951, 0, 0], [952, 0, 0]]
    }, 
    {
      "op": "elemwise_add", 
      "name": "encoder_birnn_reverse_l0_t5_state", 
      "inputs": [[950, 0, 0], [953, 0, 0]]
    }, 
    {
      "op": "Activation", 
      "name": "activation245", 
      "attrs": {"act_type": "tanh"}, 
      "inputs": [[954, 0, 0]]
    }, 
    {
      "op": "elemwise_mul", 
      "name": "encoder_birnn_reverse_l0_t5_out", 
      "inputs": [[948, 0, 0], [955, 0, 0]]
    }, 
    {
      "op": "expand_dims", 
      "name": "expand_dims308", 
      "attrs": {"axis": "0"}, 
      "inputs": [[956, 0, 0]]
    }, 
    {
      "op": "FullyConnected", 
      "name": "encoder_birnn_reverse_l0_t6_i2h", 
      "attrs": {"num_hidden": "1024"}, 
      "inputs": [[867, 6, 0], [868, 0, 0], [869, 0, 0]]
    }, 
    {
      "op": "FullyConnected", 
      "name": "encoder_birnn_reverse_l0_t6_h2h", 
      "attrs": {"num_hidden": "1024"}, 
      "inputs": [[956, 0, 0], [872, 0, 0], [873, 0, 0]]
    }, 
    {
      "op": "elemwise_add", 
      "name": "_plus246", 
      "inputs": [[958, 0, 0], [959, 0, 0]]
    }, 
    {
      "op": "SliceChannel", 
      "name": "encoder_birnn_reverse_l0_t6_slice", 
      "attrs": {"num_outputs": "4"}, 
      "inputs": [[960, 0, 0]]
    }, 
    {
      "op": "Activation", 
      "name": "encoder_birnn_reverse_l0_t6_o", 
      "attrs": {"act_type": "sigmoid"}, 
      "inputs": [[961, 3, 0]]
    }, 
    {
      "op": "Activation", 
      "name": "encoder_birnn_reverse_l0_t6_f", 
      "attrs": {"act_type": "sigmoid"}, 
      "inputs": [[961, 1, 0]]
    }, 
    {
      "op": "elemwise_mul", 
      "name": "_mul492", 
      "inputs": [[963, 0, 0], [954, 0, 0]]
    }, 
    {
      "op": "Activation", 
      "name": "encoder_birnn_reverse_l0_t6_i", 
      "attrs": {"act_type": "sigmoid"}, 
      "inputs": [[961, 0, 0]]
    }, 
    {
      "op": "Activation", 
      "name": "encoder_birnn_reverse_l0_t6_c", 
      "attrs": {"act_type": "tanh"}, 
      "inputs": [[961, 2, 0]]
    }, 
    {
      "op": "elemwise_mul", 
      "name": "_mul493", 
      "inputs": [[965, 0, 0], [966, 0, 0]]
    }, 
    {
      "op": "elemwise_add", 
      "name": "encoder_birnn_reverse_l0_t6_state", 
      "inputs": [[964, 0, 0], [967, 0, 0]]
    }, 
    {
      "op": "Activation", 
      "name": "activation246", 
      "attrs": {"act_type": "tanh"}, 
      "inputs": [[968, 0, 0]]
    }, 
    {
      "op": "elemwise_mul", 
      "name": "encoder_birnn_reverse_l0_t6_out", 
      "inputs": [[962, 0, 0], [969, 0, 0]]
    }, 
    {
      "op": "expand_dims", 
      "name": "expand_dims309", 
      "attrs": {"axis": "0"}, 
      "inputs": [[970, 0, 0]]
    }, 
    {
      "op": "FullyConnected", 
      "name": "encoder_birnn_reverse_l0_t7_i2h", 
      "attrs": {"num_hidden": "1024"}, 
      "inputs": [[867, 7, 0], [868, 0, 0], [869, 0, 0]]
    }, 
    {
      "op": "FullyConnected", 
      "name": "encoder_birnn_reverse_l0_t7_h2h", 
      "attrs": {"num_hidden": "1024"}, 
      "inputs": [[970, 0, 0], [872, 0, 0], [873, 0, 0]]
    }, 
    {
      "op": "elemwise_add", 
      "name": "_plus247", 
      "inputs": [[972, 0, 0], [973, 0, 0]]
    }, 
    {
      "op": "SliceChannel", 
      "name": "encoder_birnn_reverse_l0_t7_slice", 
      "attrs": {"num_outputs": "4"}, 
      "inputs": [[974, 0, 0]]
    }, 
    {
      "op": "Activation", 
      "name": "encoder_birnn_reverse_l0_t7_o", 
      "attrs": {"act_type": "sigmoid"}, 
      "inputs": [[975, 3, 0]]
    }, 
    {
      "op": "Activation", 
      "name": "encoder_birnn_reverse_l0_t7_f", 
      "attrs": {"act_type": "sigmoid"}, 
      "inputs": [[975, 1, 0]]
    }, 
    {
      "op": "elemwise_mul", 
      "name": "_mul494", 
      "inputs": [[977, 0, 0], [968, 0, 0]]
    }, 
    {
      "op": "Activation", 
      "name": "encoder_birnn_reverse_l0_t7_i", 
      "attrs": {"act_type": "sigmoid"}, 
      "inputs": [[975, 0, 0]]
    }, 
    {
      "op": "Activation", 
      "name": "encoder_birnn_reverse_l0_t7_c", 
      "attrs": {"act_type": "tanh"}, 
      "inputs": [[975, 2, 0]]
    }, 
    {
      "op": "elemwise_mul", 
      "name": "_mul495", 
      "inputs": [[979, 0, 0], [980, 0, 0]]
    }, 
    {
      "op": "elemwise_add", 
      "name": "encoder_birnn_reverse_l0_t7_state", 
      "inputs": [[978, 0, 0], [981, 0, 0]]
    }, 
    {
      "op": "Activation", 
      "name": "activation247", 
      "attrs": {"act_type": "tanh"}, 
      "inputs": [[982, 0, 0]]
    }, 
    {
      "op": "elemwise_mul", 
      "name": "encoder_birnn_reverse_l0_t7_out", 
      "inputs": [[976, 0, 0], [983, 0, 0]]
    }, 
    {
      "op": "expand_dims", 
      "name": "expand_dims310", 
      "attrs": {"axis": "0"}, 
      "inputs": [[984, 0, 0]]
    }, 
    {
      "op": "FullyConnected", 
      "name": "encoder_birnn_reverse_l0_t8_i2h", 
      "attrs": {"num_hidden": "1024"}, 
      "inputs": [[867, 8, 0], [868, 0, 0], [869, 0, 0]]
    }, 
    {
      "op": "FullyConnected", 
      "name": "encoder_birnn_reverse_l0_t8_h2h", 
      "attrs": {"num_hidden": "1024"}, 
      "inputs": [[984, 0, 0], [872, 0, 0], [873, 0, 0]]
    }, 
    {
      "op": "elemwise_add", 
      "name": "_plus248", 
      "inputs": [[986, 0, 0], [987, 0, 0]]
    }, 
    {
      "op": "SliceChannel", 
      "name": "encoder_birnn_reverse_l0_t8_slice", 
      "attrs": {"num_outputs": "4"}, 
      "inputs": [[988, 0, 0]]
    }, 
    {
      "op": "Activation", 
      "name": "encoder_birnn_reverse_l0_t8_o", 
      "attrs": {"act_type": "sigmoid"}, 
      "inputs": [[989, 3, 0]]
    }, 
    {
      "op": "Activation", 
      "name": "encoder_birnn_reverse_l0_t8_f", 
      "attrs": {"act_type": "sigmoid"}, 
      "inputs": [[989, 1, 0]]
    }, 
    {
      "op": "elemwise_mul", 
      "name": "_mul496", 
      "inputs": [[991, 0, 0], [982, 0, 0]]
    }, 
    {
      "op": "Activation", 
      "name": "encoder_birnn_reverse_l0_t8_i", 
      "attrs": {"act_type": "sigmoid"}, 
      "inputs": [[989, 0, 0]]
    }, 
    {
      "op": "Activation", 
      "name": "encoder_birnn_reverse_l0_t8_c", 
      "attrs": {"act_type": "tanh"}, 
      "inputs": [[989, 2, 0]]
    }, 
    {
      "op": "elemwise_mul", 
      "name": "_mul497", 
      "inputs": [[993, 0, 0], [994, 0, 0]]
    }, 
    {
      "op": "elemwise_add", 
      "name": "encoder_birnn_reverse_l0_t8_state", 
      "inputs": [[992, 0, 0], [995, 0, 0]]
    }, 
    {
      "op": "Activation", 
      "name": "activation248", 
      "attrs": {"act_type": "tanh"}, 
      "inputs": [[996, 0, 0]]
    }, 
    {
      "op": "elemwise_mul", 
      "name": "encoder_birnn_reverse_l0_t8_out", 
      "inputs": [[990, 0, 0], [997, 0, 0]]
    }, 
    {
      "op": "expand_dims", 
      "name": "expand_dims311", 
      "attrs": {"axis": "0"}, 
      "inputs": [[998, 0, 0]]
    }, 
    {
      "op": "FullyConnected", 
      "name": "encoder_birnn_reverse_l0_t9_i2h", 
      "attrs": {"num_hidden": "1024"}, 
      "inputs": [[867, 9, 0], [868, 0, 0], [869, 0, 0]]
    }, 
    {
      "op": "FullyConnected", 
      "name": "encoder_birnn_reverse_l0_t9_h2h", 
      "attrs": {"num_hidden": "1024"}, 
      "inputs": [[998, 0, 0], [872, 0, 0], [873, 0, 0]]
    }, 
    {
      "op": "elemwise_add", 
…
      "inputs": [[3198, 0, 0], [1722, 0, 0], [1723, 0, 0]]
    }, 
    {
      "op": "elemwise_add", 
      "name": "_plus357", 
      "inputs": [[3212, 0, 0], [3213, 0, 0]]
    }, 
    {
      "op": "SliceChannel", 
      "name": "decoder_rnn_l0_t57_slice", 
      "attrs": {"num_outputs": "4"}, 
      "inputs": [[3214, 0, 0]]
    }, 
    {
      "op": "Activation", 
      "name": "decoder_rnn_l0_t57_o", 
      "attrs": {"act_type": "sigmoid"}, 
      "inputs": [[3215, 3, 0]]
    }, 
    {
      "op": "Activation", 
      "name": "decoder_rnn_l0_t57_f", 
      "attrs": {"act_type": "sigmoid"}, 
      "inputs": [[3215, 1, 0]]
    }, 
    {
      "op": "elemwise_mul", 
      "name": "_mul714", 
      "inputs": [[3217, 0, 0], [3196, 0, 0]]
    }, 
    {
      "op": "Activation", 
      "name": "decoder_rnn_l0_t57_i", 
      "attrs": {"act_type": "sigmoid"}, 
      "inputs": [[3215, 0, 0]]
    }, 
    {
      "op": "Activation", 
      "name": "decoder_rnn_l0_t57_c", 
      "attrs": {"act_type": "tanh"}, 
      "inputs": [[3215, 2, 0]]
    }, 
    {
      "op": "elemwise_mul", 
      "name": "_mul715", 
      "inputs": [[3219, 0, 0], [3220, 0, 0]]
    }, 
    {
      "op": "elemwise_add", 
      "name": "decoder_rnn_l0_t57_state", 
      "inputs": [[3218, 0, 0], [3221, 0, 0]]
    }, 
    {
      "op": "Activation", 
      "name": "activation357", 
      "attrs": {"act_type": "tanh"}, 
      "inputs": [[3222, 0, 0]]
    }, 
    {
      "op": "elemwise_mul", 
      "name": "decoder_rnn_l0_t57_out", 
      "inputs": [[3216, 0, 0], [3223, 0, 0]]
    }, 
    {
      "op": "expand_dims", 
      "name": "expand_dims480", 
      "attrs": {"axis": "2"}, 
      "inputs": [[3224, 0, 0]]
    }, 
    {
      "op": "batch_dot", 
      "name": "att_batch_dot", 
      "inputs": [[1740, 0, 0], [3225, 0, 0]]
    }, 
    {
      "op": "SwapAxis", 
      "name": "swapaxes236", 
      "attrs": {
        "dim1": "0", 
        "dim2": "1"
      }, 
      "inputs": [[3226, 0, 0]]
    }, 
    {
      "op": "SequenceMask", 
      "name": "sequencemask117", 
      "attrs": {
        "use_sequence_length": "True", 
        "value": "-99999999.0"
      }, 
      "inputs": [[3227, 0, 0], [7, 0, 0]]
    }, 
    {
      "op": "SwapAxis", 
      "name": "swapaxes237", 
      "attrs": {
        "dim1": "0", 
        "dim2": "1"
      }, 
      "inputs": [[3228, 0, 0]]
    }, 
    {
      "op": "softmax", 
      "name": "attention_softmax", 
      "attrs": {"axis": "1"}, 
      "inputs": [[3229, 0, 0]]
    }, 
    {
      "op": "batch_dot", 
      "name": "batch_dot117", 
      "attrs": {"transpose_a": "True"}, 
      "inputs": [[1740, 0, 0], [3230, 0, 0]]
    }, 
    {
      "op": "Reshape", 
      "name": "reshape236", 
      "attrs": {"shape": "(0, 0)"}, 
      "inputs": [[3231, 0, 0]]
    }, 
    {
      "op": "Concat", 
      "name": "decoder_rnn_hidden_concat_t57", 
      "attrs": {
        "dim": "1", 
        "num_args": "2"
      }, 
      "inputs": [[3224, 0, 0], [3232, 0, 0]]
    }, 
    {
      "op": "FullyConnected", 
      "name": "decoder_rnn_hidden_fc_t57", 
      "attrs": {"num_hidden": "512"}, 
      "inputs": [[3233, 0, 0], [1750, 0, 0], [1751, 0, 0]]
    }, 
    {
      "op": "Activation", 
      "name": "decoder_rnn_next_hidden_t57", 
      "attrs": {"act_type": "tanh"}, 
      "inputs": [[3234, 0, 0]]
    }, 
    {
      "op": "expand_dims", 
      "name": "expand_dims481", 
      "attrs": {"axis": "1"}, 
      "inputs": [[3235, 0, 0]]
    }, 
    {
      "op": "Concat", 
      "name": "decoder_rnn_concat_target_context_t58", 
      "attrs": {
        "dim": "1", 
        "num_args": "2"
      }, 
      "inputs": [[3, 58, 0], [3235, 0, 0]]
    }, 
    {
      "op": "FullyConnected", 
      "name": "decoder_rnn_l0_t58_i2h", 
      "attrs": {"num_hidden": "2048"}, 
      "inputs": [[3237, 0, 0], [12, 0, 0], [13, 0, 0]]
    }, 
    {
      "op": "FullyConnected", 
      "name": "decoder_rnn_l0_t58_h2h", 
      "attrs": {"num_hidden": "2048"}, 
      "inputs": [[3224, 0, 0], [1722, 0, 0], [1723, 0, 0]]
    }, 
    {
      "op": "elemwise_add", 
      "name": "_plus358", 
      "inputs": [[3238, 0, 0], [3239, 0, 0]]
    }, 
    {
      "op": "SliceChannel", 
      "name": "decoder_rnn_l0_t58_slice", 
      "attrs": {"num_outputs": "4"}, 
      "inputs": [[3240, 0, 0]]
    }, 
    {
      "op": "Activation", 
      "name": "decoder_rnn_l0_t58_o", 
      "attrs": {"act_type": "sigmoid"}, 
      "inputs": [[3241, 3, 0]]
    }, 
    {
      "op": "Activation", 
      "name": "decoder_rnn_l0_t58_f", 
      "attrs": {"act_type": "sigmoid"}, 
      "inputs": [[3241, 1, 0]]
    }, 
    {
      "op": "elemwise_mul", 
      "name": "_mul716", 
      "inputs": [[3243, 0, 0], [3222, 0, 0]]
    }, 
    {
      "op": "Activation", 
      "name": "decoder_rnn_l0_t58_i", 
      "attrs": {"act_type": "sigmoid"}, 
      "inputs": [[3241, 0, 0]]
    }, 
    {
      "op": "Activation", 
      "name": "decoder_rnn_l0_t58_c", 
      "attrs": {"act_type": "tanh"}, 
      "inputs": [[3241, 2, 0]]
    }, 
    {
      "op": "elemwise_mul", 
      "name": "_mul717", 
      "inputs": [[3245, 0, 0], [3246, 0, 0]]
    }, 
    {
      "op": "elemwise_add", 
      "name": "decoder_rnn_l0_t58_state", 
      "inputs": [[3244, 0, 0], [3247, 0, 0]]
    }, 
    {
      "op": "Activation", 
      "name": "activation358", 
      "attrs": {"act_type": "tanh"}, 
      "inputs": [[3248, 0, 0]]
    }, 
    {
      "op": "elemwise_mul", 
      "name": "decoder_rnn_l0_t58_out", 
      "inputs": [[3242, 0, 0], [3249, 0, 0]]
    }, 
    {
      "op": "expand_dims", 
      "name": "expand_dims482", 
      "attrs": {"axis": "2"}, 
      "inputs": [[3250, 0, 0]]
    }, 
    {
      "op": "batch_dot", 
      "name": "att_batch_dot", 
      "inputs": [[1740, 0, 0], [3251, 0, 0]]
    }, 
    {
      "op": "SwapAxis", 
      "name": "swapaxes238", 
      "attrs": {
        "dim1": "0", 
        "dim2": "1"
      }, 
      "inputs": [[3252, 0, 0]]
    }, 
    {
      "op": "SequenceMask", 
      "name": "sequencemask118", 
      "attrs": {
        "use_sequence_length": "True", 
        "value": "-99999999.0"
      }, 
      "inputs": [[3253, 0, 0], [7, 0, 0]]
    }, 
    {
      "op": "SwapAxis", 
      "name": "swapaxes239", 
      "attrs": {
        "dim1": "0", 
        "dim2": "1"
      }, 
      "inputs": [[3254, 0, 0]]
    }, 
    {
      "op": "softmax", 
      "name": "attention_softmax", 
      "attrs": {"axis": "1"}, 
      "inputs": [[3255, 0, 0]]
    }, 
    {
      "op": "batch_dot", 
      "name": "batch_dot118", 
      "attrs": {"transpose_a": "True"}, 
      "inputs": [[1740, 0, 0], [3256, 0, 0]]
    }, 
    {
      "op": "Reshape", 
      "name": "reshape238", 
      "attrs": {"shape": "(0, 0)"}, 
      "inputs": [[3257, 0, 0]]
    }, 
    {
      "op": "Concat", 
      "name": "decoder_rnn_hidden_concat_t58", 
      "attrs": {
        "dim": "1", 
        "num_args": "2"
      }, 
      "inputs": [[3250, 0, 0], [3258, 0, 0]]
    }, 
    {
      "op": "FullyConnected", 
      "name": "decoder_rnn_hidden_fc_t58", 
      "attrs": {"num_hidden": "512"}, 
      "inputs": [[3259, 0, 0], [1750, 0, 0], [1751, 0, 0]]
    }, 
    {
      "op": "Activation", 
      "name": "decoder_rnn_next_hidden_t58", 
      "attrs": {"act_type": "tanh"}, 
      "inputs": [[3260, 0, 0]]
    }, 
    {
      "op": "expand_dims", 
      "name": "expand_dims483", 
      "attrs": {"axis": "1"}, 
      "inputs": [[3261, 0, 0]]
    }, 
    {
      "op": "Concat", 
      "name": "decoder_rnn_concat_target_context_t59", 
      "attrs": {
        "dim": "1", 
        "num_args": "2"
      }, 
      "inputs": [[3, 59, 0], [3261, 0, 0]]
    }, 
    {
      "op": "FullyConnected", 
      "name": "decoder_rnn_l0_t59_i2h", 
      "attrs": {"num_hidden": "2048"}, 
      "inputs": [[3263, 0, 0], [12, 0, 0], [13, 0, 0]]
    }, 
    {
      "op": "FullyConnected", 
      "name": "decoder_rnn_l0_t59_h2h", 
      "attrs": {"num_hidden": "2048"}, 
      "inputs": [[3250, 0, 0], [1722, 0, 0], [1723, 0, 0]]
    }, 
    {
      "op": "elemwise_add", 
      "name": "_plus359", 
      "inputs": [[3264, 0, 0], [3265, 0, 0]]
    }, 
    {
      "op": "SliceChannel", 
      "name": "decoder_rnn_l0_t59_slice", 
      "attrs": {"num_outputs": "4"}, 
      "inputs": [[3266, 0, 0]]
    }, 
    {
      "op": "Activation", 
      "name": "decoder_rnn_l0_t59_o", 
      "attrs": {"act_type": "sigmoid"}, 
      "inputs": [[3267, 3, 0]]
    }, 
    {
      "op": "Activation", 
      "name": "decoder_rnn_l0_t59_f", 
      "attrs": {"act_type": "sigmoid"}, 
      "inputs": [[3267, 1, 0]]
    }, 
    {
      "op": "elemwise_mul", 
      "name": "_mul718", 
      "inputs": [[3269, 0, 0], [3248, 0, 0]]
    }, 
    {
      "op": "Activation", 
      "name": "decoder_rnn_l0_t59_i", 
      "attrs": {"act_type": "sigmoid"}, 
      "inputs": [[3267, 0, 0]]
    }, 
    {
      "op": "Activation", 
      "name": "decoder_rnn_l0_t59_c", 
      "attrs": {"act_type": "tanh"}, 
      "inputs": [[3267, 2, 0]]
    }, 
    {
      "op": "elemwise_mul", 
      "name": "_mul719", 
      "inputs": [[3271, 0, 0], [3272, 0, 0]]
    }, 
    {
      "op": "elemwise_add", 
      "name": "decoder_rnn_l0_t59_state", 
      "inputs": [[3270, 0, 0], [3273, 0, 0]]
    }, 
    {
      "op": "Activation", 
      "name": "activation359", 
      "attrs": {"act_type": "tanh"}, 
      "inputs": [[3274, 0, 0]]
    }, 
    {
      "op": "elemwise_mul", 
      "name": "decoder_rnn_l0_t59_out", 
      "inputs": [[3268, 0, 0], [3275, 0, 0]]
    }, 
    {
      "op": "expand_dims", 
      "name": "expand_dims484", 
      "attrs": {"axis": "2"}, 
      "inputs": [[3276, 0, 0]]
    }, 
    {
      "op": "batch_dot", 
      "name": "att_batch_dot", 
      "inputs": [[1740, 0, 0], [3277, 0, 0]]
    }, 
    {
      "op": "SwapAxis", 
      "name": "swapaxes240", 
      "attrs": {
        "dim1": "0", 
        "dim2": "1"
      }, 
      "inputs": [[3278, 0, 0]]
    }, 
    {
      "op": "SequenceMask", 
      "name": "sequencemask119", 
      "attrs": {
        "use_sequence_length": "True", 
        "value": "-99999999.0"
      }, 
      "inputs": [[3279, 0, 0], [7, 0, 0]]
    }, 
    {
      "op": "SwapAxis", 
      "name": "swapaxes241", 
      "attrs": {
        "dim1": "0", 
        "dim2": "1"
      }, 
      "inputs": [[3280, 0, 0]]
    }, 
    {
      "op": "softmax", 
      "name": "attention_softmax", 
      "attrs": {"axis": "1"}, 
      "inputs": [[3281, 0, 0]]
    }, 
    {
      "op": "batch_dot", 
      "name": "batch_dot119", 
      "attrs": {"transpose_a": "True"}, 
      "inputs": [[1740, 0, 0], [3282, 0, 0]]
    }, 
    {
      "op": "Reshape", 
      "name": "reshape240", 
      "attrs": {"shape": "(0, 0)"}, 
      "inputs": [[3283, 0, 0]]
    }, 
    {
      "op": "Concat", 
      "name": "decoder_rnn_hidden_concat_t59", 
      "attrs": {
        "dim": "1", 
        "num_args": "2"
      }, 
      "inputs": [[3276, 0, 0], [3284, 0, 0]]
    }, 
    {
      "op": "FullyConnected", 
      "name": "decoder_rnn_hidden_fc_t59", 
      "attrs": {"num_hidden": "512"}, 
      "inputs": [[3285, 0, 0], [1750, 0, 0], [1751, 0, 0]]
    }, 
    {
      "op": "Activation", 
      "name": "decoder_rnn_next_hidden_t59", 
      "attrs": {"act_type": "tanh"}, 
      "inputs": [[3286, 0, 0]]
    }, 
    {
      "op": "expand_dims", 
      "name": "expand_dims485", 
      "attrs": {"axis": "1"}, 
      "inputs": [[3287, 0, 0]]
    }, 
    {
      "op": "Concat", 
      "name": "decoder_rnn_hidden_concat", 
      "attrs": {
        "dim": "1", 
        "num_args": "60"
      }, 
      "inputs": [
        [1754, 0, 0], 
        [1780, 0, 0], 
        [1806, 0, 0], 
        [1832, 0, 0], 
        [1858, 0, 0], 
        [1884, 0, 0], 
        [1910, 0, 0], 
        [1936, 0, 0], 
        [1962, 0, 0], 
        [1988, 0, 0], 
        [2014, 0, 0], 
        [2040, 0, 0], 
        [2066, 0, 0], 
        [2092, 0, 0], 
        [2118, 0, 0], 
        [2144, 0, 0], 
        [2170, 0, 0], 
        [2196, 0, 0], 
        [2222, 0, 0], 
        [2248, 0, 0], 
        [2274, 0, 0], 
        [2300, 0, 0], 
        [2326, 0, 0], 
        [2352, 0, 0], 
        [2378, 0, 0], 
        [2404, 0, 0], 
        [2430, 0, 0], 
        [2456, 0, 0], 
        [2482, 0, 0], 
        [2508, 0, 0], 
        [2534, 0, 0], 
        [2560, 0, 0], 
        [2586, 0, 0], 
        [2612, 0, 0], 
        [2638, 0, 0], 
        [2664, 0, 0], 
        [2690, 0, 0], 
        [2716, 0, 0], 
        [2742, 0, 0], 
        [2768, 0, 0], 
        [2794, 0, 0], 
        [2820, 0, 0], 
        [2846, 0, 0], 
        [2872, 0, 0], 
        [2898, 0, 0], 
        [2924, 0, 0], 
        [2950, 0, 0], 
        [2976, 0, 0], 
        [3002, 0, 0], 
        [3028, 0, 0], 
        [3054, 0, 0], 
        [3080, 0, 0], 
        [3106, 0, 0], 
        [3132, 0, 0], 
        [3158, 0, 0], 
        [3184, 0, 0], 
        [3210, 0, 0], 
        [3236, 0, 0], 
        [3262, 0, 0], 
        [3288, 0, 0]
      ]
    }, 
    {
      "op": "Reshape", 
      "name": "reshape242", 
      "attrs": {"shape": "(-3, 0)"}, 
      "inputs": [[3289, 0, 0]]
    }, 
    {
      "op": "null", 
      "name": "target_output_weight", 
      "attrs": {"__shape__": "(29337, 512)"}, 
      "inputs": []
    }, 
    {
      "op": "null", 
      "name": "target_output_bias", 
      "inputs": []
    }, 
    {
      "op": "FullyConnected", 
      "name": "logits", 
      "attrs": {
        "flatten": "False", 
        "num_hidden": "29337"
      }, 
      "inputs": [[3290, 0, 0], [3291, 0, 0], [3292, 0, 0]]
    }, 
    {
      "op": "null", 
      "name": "target_label", 
      "inputs": []
    }, 
    {
      "op": "Reshape", 
      "name": "reshape0", 
      "attrs": {"shape": "(-1,)"}, 
      "inputs": [[3294, 0, 0]]
    }, 
    {
      "op": "SoftmaxOutput", 
      "name": "softmax", 
      "attrs": {
        "ignore_label": "0", 
        "normalization": "valid", 
        "smooth_alpha": "0.0", 
        "use_ignore": "True"
      }, 
      "inputs": [[3293, 0, 0], [3295, 0, 0]]
    }
  ], 
  "arg_nodes": [
    0, 
    1, 
    4, 
    12, 
    13, 
    15, 
    19, 
    20, 
    23, 
    24, 
    868, 
    869, 
    872, 
    873, 
    1718, 
    1719, 
    1722, 
    1723, 
    1729, 
    1730, 
    1750, 
    1751, 
    3291, 
    3292, 
    3294
  ], 
  "node_row_ptr": [
    0, 
    1, 
    2, 
    3, 
    63, 
    64, 
    65, 
    66, 
    67, 
    68, 
    69, 
    70, 
    71, 
    72, 
    73, 
    74, 
    75, 
    76, 
    77, 
    137, 
    138, 
    139, 
    140, 
    141, 
    142, 
    143, 
    144, 
    145, 
    149, 
    150, 
    151, 
    152, 
    153, 
    154, 
    155, 
    156, 
    157, 
    158, 
    159, 
    160, 
    161, 
    162, 
    163, 
    167, 
    168, 
    169, 
    170, 
    171, 
    172, 
    173, 
    174, 
    175, 
    176, 
    177, 
    178, 
    179, 
    180, 
    184, 
    185, 
    186, 
    187, 
    188, 
    189, 
    190, 
    191, 
    192, 
    193, 
    194, 
    195, 
    196, 
    197, 
    201, 
    202, 
    203, 
    204, 
    205, 
    206, 
    207, 
    208, 
    209, 
    210, 
    211, 
    212, 
    213, 
    214, 
    218, 
    219, 
    220, 
    221, 
    222, 
    223, 
    224, 
    225, 
    226, 
    227, 
    228, 
    229, 
    230, 
    231, 
    235, 
    236, 
    237, 
    238, 
    239, 
    240, 
    241, 
    242, 
    243, 
    244, 
    245, 
    246, 
    247, 
    248, 
    252, 
    253, 
    254, 
    255, 
    256, 
    257, 
    258, 
    259, 
    260, 
    261, 
    262, 
    263, 
    264, 
    265, 
    269, 
    270, 
    271, 
    272, 
    273, 
    274, 
    275, 
    276, 
    277, 
    278, 
    279, 
    280, 
    281, 
    282, 
    286, 
    287, 
    288, 
    289, 
    290, 
    291, 
    292, 
    293, 
    294, 
    295, 
    296, 
    297, 
    298, 
    299, 
    303, 
    304, 
    305, 
    306, 
    307, 
    308, 
    309, 
    310, 
    311, 
    312, 
    313, 
    314, 
    315, 
    316, 
    320, 
    321, 
    322, 
    323, 
    324, 
    325, 
    326, 
    327, 
    328, 
    329, 
    330, 
    331, 
    332, 
    333, 
    337, 
    338, 
    339, 
    340, 
    341, 
    342, 
    343, 
    344, 
    345, 
    346, 
    347, 
    348, 
    349, 
    350, 
    354, 
    355, 
    356, 
    357, 
    358, 
    359, 
    360, 
    361, 
    362, 
    363, 
    364, 
    365, 
    366, 
    367, 
    371, 
    372, 
    373, 
    374, 
    375, 
    376, 
    377, 
    378, 
    379, 
    380, 
    381, 
    382, 
    383, 
    384, 
    388, 
    389, 
    390, 
    391, 
    392, 
    393, 
    394, 
    395, 
    396, 
    397, 
    398, 
    399, 
    400, 
    401, 
    405, 
    406, 
    407, 
    408, 
    409, 
    410, 
    411, 
    412, 
    413, 
    414, 
    415, 
    416, 
    417, 
    418, 
    422, 
    423, 
    424, 
    425, 
    426, 
    427, 
    428, 
    429, 
    430, 
    431, 
    432, 
    433, 
    434, 
    435, 
    439, 
    440, 
    441, 
    442, 
    443, 
    444, 
    445, 
    446, 
    447, 
    448, 
    449, 
    450, 
    451, 
    452, 
    456, 
    457, 
    458, 
    459, 
    460, 
    461, 
    462, 
    463, 
    464, 
    465, 
    466, 
    467, 
    468, 
    469, 
    473, 
    474, 
    475, 
    476, 
    477, 
    478, 
    479, 
    480, 
    481, 
    482, 
    483, 
    484, 
    485, 
    486, 
    490, 
    491, 
    492, 
    493, 
    494, 
    495, 
    496, 
    497, 
    498, 
    499, 
    500, 
    501, 
    502, 
    503, 
    507, 
    508, 
    509, 
    510, 
    511, 
    512, 
    513, 
    514, 
    515, 
    516, 
    517, 
    518, 
    519, 
    520, 
    524, 
    525, 
    526, 
    527, 
    528, 
    529, 
    530, 
    531, 
    532, 
    533, 
    534, 
    535, 
    536, 
    537, 
    541, 
    542, 
    543, 
    544, 
    545, 
    546, 
    547, 
    548, 
    549, 
    550, 
    551, 
    552, 
    553, 
    554, 
    558, 
    559, 
    560, 
    561, 
    562, 
    563, 
    564, 
    565, 
    566, 
    567, 
    568, 
    569, 
    570, 
    571, 
    575, 
    576, 
    577, 
    578, 
    579, 
    580, 
    581, 
    582, 
    583, 
    584, 
    585, 
    586, 
    587, 
    588, 
    592, 
    593, 
    594, 
    595, 
    596, 
    597, 
    598, 
    599, 
    600, 
    601, 
    602, 
    603, 
    604, 
    605, 
    609, 
    610, 
    611, 
    612, 
    613, 
    614, 
    615, 
    616, 
    617, 
    618, 
    619, 
    620, 
    621, 
    622, 
    626, 
    627, 
    628, 
    629, 
    630, 
    631, 
    632, 
    633, 
    634, 
    635, 
    636, 
    637, 
    638, 
    639, 
    643, 
    644, 
    645, 
    646, 
    647, 
    648, 
    649, 
    650, 
    651, 
    652, 
    653, 
    654, 
    655, 
    656, 
    660, 
    661, 
    662, 
    663, 
    664, 
    665, 
    666, 
    667, 
    668, 
    669, 
    670, 
    671, 
    672, 
    673, 
    677, 
    678, 
    679, 
    680, 
    681, 
    682, 
    683, 
    684, 
    685, 
    686, 
    687, 
    688, 
    689, 
    690, 
    694, 
    695, 
    696, 
    697, 
    698, 
    699, 
    700, 
    701, 
    702, 
    703, 
    704, 
    705, 
    706, 
    707, 
    711, 
    712, 
    713, 
    714, 
    715, 
    716, 
    717, 
    718, 
    719, 
    720, 
    721, 
    722, 
    723, 
    724, 
    728, 
    729, 
    730, 
    731, 
    732, 
    733, 
    734, 
    735, 
    736, 
    737, 
    738, 
    739, 
    740, 
    741, 
    745, 
    746, 
    747, 
    748, 
    749, 
    750, 
    751, 
    752, 
    753, 
    754, 
    755, 
    756, 
    757, 
    758, 
    762, 
    763, 
    764, 
    765, 
    766, 
    767, 
    768, 
    769, 
    770, 
    771, 
    772, 
    773, 
    774, 
    775, 
    779, 
    780, 
    781, 
    782, 
    783, 
    784, 
    785, 
    786, 
    787, 
    788, 
    789, 
    790, 
    791, 
    792, 
    796, 
    797, 
    798, 
    799, 
    800, 
    801, 
    802, 
    803, 
    804, 
    805, 
    806, 
    807, 
    808, 
    809, 
    813, 
    814, 
    815, 
    816, 
    817, 
    818, 
    819, 
    820, 
    821, 
    822, 
    823, 
    824, 
    825, 
    826, 
    830, 
    831, 
    832, 
    833, 
    834, 
    835, 
    836, 
    837, 
    838, 
    839, 
    840, 
    841, 
    842, 
    843, 
    847, 
    848, 
    849, 
    850, 
    851, 
    852, 
    853, 
    854, 
    855, 
    856, 
    857, 
    858, 
    859, 
    860, 
    864, 
    865, 
    866, 
    867, 
    868, 
    869, 
    870, 
    871, 
    872, 
    873, 
    874, 
    875, 
    876, 
    877, 
    881, 
    882, 
    883, 
    884, 
    885, 
    886, 
    887, 
    888, 
    889, 
    890, 
    891, 
    892, 
    893, 
    894, 
    898, 
    899, 
    900, 
    901, 
    902, 
    903, 
    904, 
    905, 
    906, 
    907, 
    908, 
    909, 
    910, 
    911, 
    915, 
    916, 
    917, 
    918, 
    919, 
    920, 
    921, 
    922, 
    923, 
    924, 
    925, 
    926, 
    927, 
    928, 
    932, 
    933, 
    934, 
    935, 
    936, 
    937, 
    938, 
    939, 
    940, 
    941, 
    942, 
    943, 
    944, 
    945, 
    949, 
    950, 
    951, 
    952, 
    953, 
    954, 
    955, 
    956, 
    957, 
    958, 
    959, 
    960, 
    961, 
    962, 
    966, 
    967, 
    968, 
    969, 
    970, 
    971, 
    972, 
    973, 
    974, 
    975, 
    976, 
    977, 
    978, 
    979, 
    983, 
    984, 
    985, 
    986, 
    987, 
    988, 
    989, 
    990, 
    991, 
    992, 
    993, 
    994, 
    995, 
    996, 
    1000, 
    1001, 
    1002, 
    1003, 
    1004, 
    1005, 
    1006, 
    1007, 
    1008, 
    1009, 
    1010, 
    1011, 
    1012, 
    1013, 
    1017, 
    1018, 
    1019, 
    1020, 
    1021, 
    1022, 
    1023, 
    1024, 
    1025, 
    1026, 
    1027, 
    1028, 
    1029, 
    1030, 
    1034, 
    1035, 
    1036, 
    1037, 
    1038, 
    1039, 
    1040, 
    1041, 
    1042, 
    1043, 
    1044, 
    1045, 
    1046, 
    1047, 
    1051, 
    1052, 
    1053, 
    1054, 
    1055, 
    1056, 
    1057, 
    1058, 
    1059, 
    1060, 
    1061, 
    1062, 
    1063, 
    1064, 
    1068, 
    1069, 
    1070, 
    1071, 
    1072, 
    1073, 
    1074, 
    1075, 
    1076, 
    1077, 
    1078, 
    1079, 
    1080, 
    1081, 
    1085, 
    1086, 
    1087, 
    1088, 
    1089, 
    1090, 
    1091, 
    1092, 
    1093, 
    1094, 
    1095, 
    1096, 
    1097, 
    1098, 
    1102, 
    1103, 
    1104, 
    1105, 
    1106, 
    1107, 
    1108, 
    1109, 
    1110, 
    1111, 
    1112, 
    1113, 
    1114, 
    1115, 
    1119, 
    1120, 
    1121, 
    1122, 
    1123, 
    1124, 
    1125, 
    1126, 
    1127, 
    1128, 
    1129, 
    1130, 
    1131, 
    1132, 
    1136, 
    1137, 
    1138, 
    1139, 
    1140, 
    1141, 
    1142, 
    1143, 
    1144, 
    1145, 
    1146, 
    1147, 
    1148, 
    1149, 
    1153, 
    1154, 
    1155, 
    1156, 
    1157, 
    1158, 
    1159, 
    1160, 
    1161, 
    1162, 
    1163, 
    1164, 
    1165, 
    1225, 
    1226, 
    1227, 
    1228, 
    1229, 
    1230, 
    1231, 
    1232, 
    1233, 
    1237, 
    1238, 
    1239, 
    1240, 
    1241, 
    1242, 
    1243, 
    1244, 
    1245, 
    1246, 
    1247, 
    1248, 
    1249, 
    1250, 
    1251, 
    1255, 
    1256, 
    1257, 
    1258, 
    1259, 
    1260, 
    1261, 
    1262, 
    1263, 
    1264, 
    1265, 
    1266, 
    1267, 
    1268, 
    1272, 
    1273, 
    1274, 
    1275, 
    1276, 
    1277, 
    1278, 
    1279, 
    1280, 
    1281, 
    1282, 
    1283, 
    1284, 
    1285, 
    1289, 
    1290, 
    1291, 
    1292, 
    1293, 
    1294, 
    1295, 
    1296, 
    1297, 
    1298, 
    1299, 
    1300, 
    1301, 
    1302, 
    1306, 
    1307, 
    1308, 
    1309, 
    1310, 
    1311, 
    1312, 
    1313, 
    1314, 
    1315, 
    1316, 
    1317, 
    1318, 
    1319, 
    1323, 
    1324, 
    1325, 
    1326, 
    1327, 
    1328, 
    1329, 
    1330, 
    1331, 
    1332, 
    1333, 
    1334, 
    1335, 
    1336, 
    1340, 
    1341, 
    1342, 
    1343, 
    1344, 
    1345, 
    1346, 
    1347, 
    1348, 
    1349, 
    1350, 
    1351, 
    1352, 
    1353, 
    1357, 
    1358, 
    1359, 
    1360, 
    1361, 
    1362, 
    1363, 
    1364, 
    1365, 
    1366, 
    1367, 
    1368, 
    1369, 
    1370, 
    1374, 
    1375, 
    1376, 
    1377, 
    1378, 
    1379, 
    1380, 
    1381, 
    1382, 
    1383, 
    1384, 
    1385, 
    1386, 
    1387, 
    1391, 
    1392, 
    1393, 
    1394, 
    1395, 
    1396, 
    1397, 
    1398, 
    1399, 
    1400, 
    1401, 
    1402, 
    1403, 
    1404, 
    1408, 
    1409, 
    1410, 
    1411, 
    1412, 
    1413, 
    1414, 
    1415, 
    1416, 
    1417, 
    1418, 
    1419, 
    1420, 
    1421, 
    1425, 
    1426, 
    1427, 
    1428, 
    1429, 
    1430, 
    1431, 
    1432, 
    1433, 
    1434, 
    1435, 
    1436, 
    1437, 
    1438, 
    1442, 
    1443, 
    1444, 
    1445, 
    1446, 
    1447, 
    1448, 
    1449, 
    1450, 
    1451, 
    1452, 
    1453, 
    1454, 
    1455, 
    1459, 
    1460, 
    1461, 
    1462, 
    1463, 
    1464, 
    1465, 
    1466, 
    1467, 
    1468, 
    1469, 
    1470, 
    1471, 
    1472, 
    1476, 
    1477, 
    1478, 
    1479, 
    1480, 
    1481, 
    1482, 
    1483, 
    1484, 
    1485, 
    1486, 
    1487, 
    1488, 
    1489, 
    1493, 
    1494, 
    1495, 
    1496, 
    1497, 
    1498, 
    1499, 
    1500, 
    1501, 
    1502, 
    1503, 
    1504, 
    1505, 
    1506, 
    1510, 
    1511, 
    1512, 
    1513, 
    1514, 
    1515, 
    1516, 
    1517, 
    1518, 
    1519, 
    1520, 
    1521, 
    1522, 
    1523, 
    1527, 
    1528, 
    1529, 
    1530, 
    1531, 
    1532, 
    1533, 
    1534, 
    1535, 
    1536, 
    1537, 
    1538, 
    1539, 
    1540, 
    1544, 
    1545, 
    1546, 
    1547, 
    1548, 
    1549, 
    1550, 
    1551, 
    1552, 
    1553, 
    1554, 
    1555, 
    1556, 
    1557, 
    1561, 
    1562, 
    1563, 
    1564, 
    1565, 
    1566, 
    1567, 
    1568, 
    1569, 
    1570, 
    1571, 
    1572, 
    1573, 
    1574, 
    1578, 
    1579, 
    1580, 
    1581, 
    1582, 
    1583, 
    1584, 
    1585, 
    1586, 
    1587, 
    1588, 
    1589, 
    1590, 
    1591, 
    1595, 
    1596, 
    1597, 
    1598, 
    1599, 
    1600, 
    1601, 
    1602, 
    1603, 
    1604, 
    1605, 
    1606, 
    1607, 
    1608, 
    1612, 
    1613, 
    1614, 
    1615, 
    1616, 
    1617, 
    1618, 
    1619, 
    1620, 
    1621, 
    1622, 
    1623, 
    1624, 
    1625, 
    1629, 
    1630, 
    1631, 
    1632, 
    1633, 
    1634, 
    1635, 
    1636, 
    1637, 
    1638, 
    1639, 
    1640, 
    1641, 
    1642, 
    1646, 
    1647, 
    1648, 
    1649, 
    1650, 
    1651, 
    1652, 
    1653, 
    1654, 
    1655, 
    1656, 
    1657, 
    1658, 
    1659, 
    1663, 
    1664, 
    1665, 
    1666, 
    1667, 
    1668, 
    1669, 
    1670, 
    1671, 
    1672, 
    1673, 
    1674, 
    1675, 
    1676, 
    1680, 
    1681, 
    1682, 
    1683, 
    1684, 
    1685, 
    1686, 
    1687, 
    1688, 
    1689, 
    1690, 
    1691, 
    1692, 
    1693, 
    1697, 
    1698, 
    1699, 
    1700, 
    1701, 
    1702, 
    1703, 
    1704, 
    1705, 
    1706, 
    1707, 
    1708, 
    1709, 
    1710, 
    1714, 
    1715, 
    1716, 
    1717, 
    1718, 
    1719, 
    1720, 
    1721, 
    1722, 
    1723, 
    1724, 
    1725, 
    1726, 
    1727, 
    1731, 
    1732, 
    1733, 
    1734, 
    1735, 
    1736, 
    1737, 
    1738, 
    1739, 
    1740, 
    1741, 
    1742, 
    1743, 
    1744, 
    1748, 
    1749, 
    1750, 
    1751, 
    1752, 
    1753, 
    1754, 
    1755, 
    1756, 
    1757, 
    1758, 
    1759, 
    1760, 
    1761, 
    1765, 
    1766, 
    1767, 
    1768, 
    1769, 
    1770, 
    1771, 
    1772, 
    1773, 
    1774, 
    1775, 
    1776, 
    1777, 
    1778, 
    1782, 
    1783, 
    1784, 
    1785, 
    1786, 
    1787, 
    1788, 
    1789, 
    1790, 
    1791, 
    1792, 
    1793, 
    1794, 
    1795, 
    1799, 
    1800, 
    1801, 
    1802, 
    1803, 
    1804, 
    1805, 
    1806, 
    1807, 
    1808, 
    1809, 
    1810, 
    1811, 
    1812, 
    1816, 
    1817, 
    1818, 
    1819, 
    1820, 
    1821, 
    1822, 
    1823, 
    1824, 
    1825, 
    1826, 
    1827, 
    1828, 
    1829, 
    1833, 
    1834, 
    1835, 
    1836, 
    1837, 
    1838, 
    1839, 
    1840, 
    1841, 
    1842, 
    1843, 
    1844, 
    1845, 
    1846, 
    1850, 
    1851, 
    1852, 
    1853, 
    1854, 
    1855, 
    1856, 
    1857, 
    1858, 
    1859, 
    1860, 
    1861, 
    1862, 
    1863, 
    1867, 
    1868, 
    1869, 
    1870, 
    1871, 
    1872, 
    1873, 
    1874, 
    1875, 
    1876, 
    1877, 
    1878, 
    1879, 
    1880, 
    1884, 
    1885, 
    1886, 
    1887, 
    1888, 
    1889, 
    1890, 
    1891, 
    1892, 
    1893, 
    1894, 
    1895, 
    1896, 
    1897, 
    1901, 
    1902, 
    1903, 
    1904, 
    1905, 
    1906, 
    1907, 
    1908, 
    1909, 
    1910, 
    1911, 
    1912, 
    1913, 
    1914, 
    1918, 
    1919, 
    1920, 
    1921, 
    1922, 
    1923, 
    1924, 
    1925, 
    1926, 
    1927, 
    1928, 
    1929, 
    1930, 
    1931, 
    1935, 
    1936, 
    1937, 
    1938, 
    1939, 
    1940, 
    1941, 
    1942, 
    1943, 
    1944, 
    1945, 
    1946, 
    1947, 
    1948, 
    1952, 
    1953, 
    1954, 
    1955, 
    1956, 
    1957, 
    1958, 
    1959, 
    1960, 
    1961, 
    1962, 
    1963, 
    1964, 
    1965, 
    1969, 
    1970, 
    1971, 
    1972, 
    1973, 
    1974, 
    1975, 
    1976, 
    1977, 
    1978, 
    1979, 
    1980, 
    1981, 
    1982, 
    1986, 
    1987, 
    1988, 
    1989, 
    1990, 
    1991, 
    1992, 
    1993, 
    1994, 
    1995, 
    1996, 
    1997, 
    1998, 
    1999, 
    2003, 
    2004, 
    2005, 
    2006, 
    2007, 
    2008, 
    2009, 
    2010, 
    2011, 
    2012, 
    2013, 
    2014, 
    2015, 
    2016, 
    2020, 
    2021, 
    2022, 
    2023, 
    2024, 
    2025, 
    2026, 
    2027, 
    2028, 
    2029, 
    2030, 
    2031, 
    2032, 
    2033, 
    2037, 
    2038, 
    2039, 
    2040, 
    2041, 
    2042, 
    2043, 
    2044, 
    2045, 
    2046, 
    2047, 
    2048, 
    2049, 
    2050, 
    2054, 
    2055, 
    2056, 
    2057, 
    2058, 
    2059, 
    2060, 
    2061, 
    2062, 
    2063, 
    2064, 
    2065, 
    2066, 
    2067, 
    2071, 
    2072, 
    2073, 
    2074, 
    2075, 
    2076, 
    2077, 
    2078, 
    2079, 
    2080, 
    2081, 
    2082, 
    2083, 
    2084, 
    2088, 
    2089, 
    2090, 
    2091, 
    2092, 
    2093, 
    2094, 
    2095, 
    2096, 
    2097, 
    2098, 
    2099, 
    2100, 
    2101, 
    2105, 
    2106, 
    2107, 
    2108, 
    2109, 
    2110, 
    2111, 
    2112, 
    2113, 
    2114, 
    2115, 
    2116, 
    2117, 
    2118, 
    2122, 
    2123, 
    2124, 
    2125, 
    2126, 
    2127, 
    2128, 
    2129, 
    2130, 
    2131, 
    2132, 
    2133, 
    2134, 
    2135, 
    2139, 
    2140, 
    2141, 
    2142, 
    2143, 
    2144, 
    2145, 
    2146, 
    2147, 
    2148, 
    2149, 
    2150, 
    2151, 
    2152, 
    2156, 
    2157, 
    2158, 
    2159, 
    2160, 
    2161, 
    2162, 
    2163, 
    2164, 
    2165, 
    2166, 
    2167, 
    2168, 
    2169, 
    2173, 
    2174, 
    2175, 
    2176, 
    2177, 
    2178, 
    2179, 
    2180, 
    2181, 
    2182, 
    2183, 
    2184, 
    2185, 
    2186, 
    2190, 
    2191, 
    2192, 
    2193, 
    2194, 
    2195, 
    2196, 
    2197, 
    2198, 
    2199, 
    2200, 
    2201, 
    2202, 
    2203, 
    2207, 
    2208, 
    2209, 
    2210, 
    2211, 
    2212, 
    2213, 
    2214, 
    2215, 
    2216, 
    2217, 
    2218, 
    2219, 
    2220, 
    2224, 
    2225, 
    2226, 
    2227, 
    2228, 
    2229, 
    2230, 
    2231, 
    2232, 
    2233, 
    2234, 
    2235, 
    2236, 
    2237, 
    2241, 
    2242, 
    2243, 
    2244, 
    2245, 
    2246, 
    2247, 
    2248, 
    2249, 
    2250, 
    2251, 
    2252, 
    2253, 
    2254, 
    2255, 
    2256, 
    2257, 
    2258, 
    2259, 
    2260, 
    2261, 
    2262, 
    2263, 
    2267, 
    2268, 
    2269, 
    2270, 
    2271, 
    2272, 
    2273, 
    2274, 
    2275, 
    2276, 
    2277, 
    2278, 
    2279, 
    2280, 
    2281, 
    2282, 
    2283, 
    2284, 
    2285, 
    2286, 
    2287, 
    2288, 
    2289, 
    2290, 
    2291, 
    2292, 
    2293, 
    2294, 
    2295, 
    2296, 
    2297, 
    2298, 
    2299, 
    2303, 
    2304, 
    2305, 
    2306, 
    2307, 
    2308, 
    2309, 
    2310, 
    2311, 
    2312, 
    2313, 
    2314, 
    2315, 
    2316, 
    2317, 
    2318, 
    2319, 
    2320, 
    2321, 
    2322, 
    2323, 
    2324, 
    2325, 
    2326, 
    2327, 
    2328, 
    2332, 
    2333, 
    2334, 
    2335, 
    2336, 
    2337, 
    2338, 
    2339, 
    2340, 
    2341, 
    2342, 
    2343, 
    2344, 
    2345, 
    2346, 
    2347, 
    2348, 
    2349, 
    2350, 
    2351, 
    2352, 
    2353, 
    2354, 
    2355, 
    2356, 
    2357, 
    2361, 
    2362, 
    2363, 
    2364, 
    2365, 
    2366, 
    2367, 
    2368, 
    2369, 
    2370, 
    2371, 
    2372, 
    2373, 
    2374, 
    2375, 
    2376, 
    2377, 
    2378, 
    2379, 
    2380, 
    2381, 
    2382, 
    2383, 
    2384, 
    2385, 
    2386, 
    2390, 
    2391, 
    2392, 
    2393, 
    2394, 
    2395, 
    2396, 
    2397, 
    2398, 
    2399, 
    2400, 
    2401, 
    2402, 
    2403, 
    2404, 
    2405, 
    2406, 
    2407, 
    2408, 
    2409, 
    2410, 
    2411, 
    2412, 
    2413, 
    2414, 
    2415, 
    2419, 
    2420, 
    2421, 
    2422, 
    2423, 
    2424, 
    2425, 
    2426, 
    2427, 
    2428, 
    2429, 
    2430, 
    2431, 
    2432, 
    2433, 
    2434, 
    2435, 
    2436, 
    2437, 
    2438, 
    2439, 
    2440, 
    2441, 
    2442, 
    2443, 
    2444, 
    2448, 
    2449, 
    2450, 
    2451, 
    2452, 
    2453, 
    2454, 
    2455, 
    2456, 
    2457, 
    2458, 
    2459, 
    2460, 
    2461, 
    2462, 
    2463, 
    2464, 
    2465, 
    2466, 
    2467, 
    2468, 
    2469, 
    2470, 
    2471, 
    2472, 
    2473, 
    2477, 
    2478, 
    2479, 
    2480, 
    2481, 
    2482, 
    2483, 
    2484, 
    2485, 
    2486, 
    2487, 
    2488, 
    2489, 
    2490, 
    2491, 
    2492, 
    2493, 
    2494, 
    2495, 
    2496, 
    2497, 
    2498, 
    2499, 
    2500, 
    2501, 
    2502, 
    2506, 
    2507, 
    2508, 
    2509, 
    2510, 
    2511, 
    2512, 
    2513, 
    2514, 
    2515, 
    2516, 
    2517, 
    2518, 
    2519, 
    2520, 
    2521, 
    2522, 
    2523, 
    2524, 
    2525, 
    2526, 
    2527, 
    2528, 
    2529, 
    2530, 
    2531, 
    2535, 
    2536, 
    2537, 
    2538, 
    2539, 
    2540, 
    2541, 
    2542, 
    2543, 
    2544, 
    2545, 
    2546, 
    2547, 
    2548, 
    2549, 
    2550, 
    2551, 
    2552, 
    2553, 
    2554, 
    2555, 
    2556, 
    2557, 
    2558, 
    2559, 
    2560, 
    2564, 
    2565, 
    2566, 
    2567, 
    2568, 
    2569, 
    2570, 
    2571, 
    2572, 
    2573, 
    2574, 
    2575, 
    2576, 
    2577, 
    2578, 
    2579, 
    2580, 
    2581, 
    2582, 
    2583, 
    2584, 
    2585, 
    2586, 
    2587, 
    2588, 
    2589, 
    2593, 
    2594, 
    2595, 
    2596, 
    2597, 
    2598, 
    2599, 
    2600, 
    2601, 
    2602, 
    2603, 
    2604, 
    2605, 
    2606, 
    2607, 
    2608, 
    2609, 
    2610, 
    2611, 
    2612, 
    2613, 
    2614, 
    2615, 
    2616, 
    2617, 
    2618, 
    2622, 
    2623, 
    2624, 
    2625, 
    2626, 
    2627, 
    2628, 
    2629, 
    2630, 
    2631, 
    2632, 
    2633, 
    2634, 
    2635, 
    2636, 
    2637, 
    2638, 
    2639, 
    2640, 
    2641, 
    2642, 
    2643, 
    2644, 
    2645, 
    2646, 
    2647, 
    2651, 
    2652, 
    2653, 
    2654, 
    2655, 
    2656, 
    2657, 
    2658, 
    2659, 
    2660, 
    2661, 
    2662, 
    2663, 
    2664, 
    2665, 
    2666, 
    2667, 
    2668, 
    2669, 
    2670, 
    2671, 
    2672, 
    2673, 
    2674, 
    2675, 
    2676, 
    2680, 
    2681, 
    2682, 
    2683, 
    2684, 
    2685, 
    2686, 
    2687, 
    2688, 
    2689, 
    2690, 
    2691, 
    2692, 
    2693, 
    2694, 
    2695, 
    2696, 
    2697, 
    2698, 
    2699, 
    2700, 
    2701, 
    2702, 
    2703, 
    2704, 
    2705, 
    2709, 
    2710, 
    2711, 
    2712, 
    2713, 
    2714, 
    2715, 
    2716, 
    2717, 
    2718, 
    2719, 
    2720, 
    2721, 
    2722, 
    2723, 
    2724, 
    2725, 
    2726, 
    2727, 
    2728, 
    2729, 
    2730, 
    2731, 
    2732, 
    2733, 
    2734, 
    2738, 
    2739, 
    2740, 
    2741, 
    2742, 
    2743, 
    2744, 
    2745, 
    2746, 
    2747, 
    2748, 
    2749, 
    2750, 
    2751, 
    2752, 
    2753, 
    2754, 
    2755, 
    2756, 
    2757, 
    2758, 
    2759, 
    2760, 
    2761, 
    2762, 
    2763, 
    2767, 
    2768, 
    2769, 
    2770, 
    2771, 
    2772, 
    2773, 
    2774, 
    2775, 
    2776, 
    2777, 
    2778, 
    2779, 
    2780, 
    2781, 
    2782, 
    2783, 
    2784, 
    2785, 
    2786, 
    2787, 
    2788, 
    2789, 
    2790, 
    2791, 
    2792, 
    2796, 
    2797, 
    2798, 
    2799, 
    2800, 
    2801, 
    2802, 
    2803, 
    2804, 
    2805, 
    2806, 
    2807, 
    2808, 
    2809, 
    2810, 
    2811, 
    2812, 
    2813, 
    2814, 
    2815, 
    2816, 
    2817, 
    2818, 
    2819, 
    2820, 
    2821, 
    2825, 
    2826, 
    2827, 
    2828, 
    2829, 
    2830, 
    2831, 
    2832, 
    2833, 
    2834, 
    2835, 
    2836, 
    2837, 
    2838, 
    2839, 
    2840, 
    2841, 
    2842, 
    2843, 
    2844, 
    2845, 
    2846, 
    2847, 
    2848, 
    2849, 
    2850, 
    2854, 
    2855, 
    2856, 
    2857, 
    2858, 
    2859, 
    2860, 
    2861, 
    2862, 
    2863, 
    2864, 
    2865, 
    2866, 
    2867, 
    2868, 
    2869, 
    2870, 
    2871, 
    2872, 
    2873, 
    2874, 
    2875, 
    2876, 
    2877, 
    2878, 
    2879, 
    2883, 
    2884, 
    2885, 
    2886, 
    2887, 
    2888, 
    2889, 
    2890, 
    2891, 
    2892, 
    2893, 
    2894, 
    2895, 
    2896, 
    2897, 
    2898, 
    2899, 
    2900, 
    2901, 
    2902, 
    2903, 
    2904, 
    2905, 
    2906, 
    2907, 
    2908, 
    2912, 
    2913, 
    2914, 
    2915, 
    2916, 
    2917, 
    2918, 
    2919, 
    2920, 
    2921, 
    2922, 
    2923, 
    2924, 
    2925, 
    2926, 
    2927, 
    2928, 
    2929, 
    2930, 
    2931, 
    2932, 
    2933, 
    2934, 
    2935, 
    2936, 
    2937, 
    2941, 
    2942, 
    2943, 
    2944, 
    2945, 
    2946, 
    2947, 
    2948, 
    2949, 
    2950, 
    2951, 
    2952, 
    2953, 
    2954, 
    2955, 
    2956, 
    2957, 
    2958, 
    2959, 
    2960, 
    2961, 
    2962, 
    2963, 
    2964, 
    2965, 
    2966, 
    2970, 
    2971, 
    2972, 
    2973, 
    2974, 
    2975, 
    2976, 
    2977, 
    2978, 
    2979, 
    2980, 
    2981, 
    2982, 
    2983, 
    2984, 
    2985, 
    2986, 
    2987, 
    2988, 
    2989, 
    2990, 
    2991, 
    2992, 
    2993, 
    2994, 
    2995, 
    2999, 
    3000, 
    3001, 
    3002, 
    3003, 
    3004, 
    3005, 
    3006, 
    3007, 
    3008, 
    3009, 
    3010, 
    3011, 
    3012, 
    3013, 
    3014, 
    3015, 
    3016, 
    3017, 
    3018, 
    3019, 
    3020, 
    3021, 
    3022, 
    3023, 
    3024, 
    3028, 
    3029, 
    3030, 
    3031, 
    3032, 
    3033, 
    3034, 
    3035, 
    3036, 
    3037, 
    3038, 
    3039, 
    3040, 
    3041, 
    3042, 
    3043, 
    3044, 
    3045, 
    3046, 
    3047, 
    3048, 
    3049, 
    3050, 
    3051, 
    3052, 
    3053, 
    3057, 
    3058, 
    3059, 
    3060, 
    3061, 
    3062, 
    3063, 
    3064, 
    3065, 
    3066, 
    3067, 
    3068, 
    3069, 
    3070, 
    3071, 
    3072, 
    3073, 
    3074, 
    3075, 
    3076, 
    3077, 
    3078, 
    3079, 
    3080, 
    3081, 
    3082, 
    3086, 
    3087, 
    3088, 
    3089, 
    3090, 
    3091, 
    3092, 
    3093, 
    3094, 
    3095, 
    3096, 
    3097, 
    3098, 
    3099, 
    3100, 
    3101, 
    3102, 
    3103, 
    3104, 
    3105, 
    3106, 
    3107, 
    3108, 
    3109, 
    3110, 
    3111, 
    3115, 
    3116, 
    3117, 
    3118, 
    3119, 
    3120, 
    3121, 
    3122, 
    3123, 
    3124, 
    3125, 
    3126, 
    3127, 
    3128, 
    3129, 
    3130, 
    3131, 
    3132, 
    3133, 
    3134, 
    3135, 
    3136, 
    3137, 
    3138, 
    3139, 
    3140, 
    3144, 
    3145, 
    3146, 
    3147, 
    3148, 
    3149, 
    3150, 
    3151, 
    3152, 
    3153, 
    3154, 
    3155, 
    3156, 
    3157, 
    3158, 
    3159, 
    3160, 
    3161, 
    3162, 
    3163, 
    3164, 
    3165, 
    3166, 
    3167, 
    3168, 
    3169, 
    3173, 
    3174, 
    3175, 
    3176, 
    3177, 
    3178, 
    3179, 
    3180, 
    3181, 
    3182, 
    3183, 
    3184, 
    3185, 
    3186, 
    3187, 
    3188, 
    3189, 
    3190, 
    3191, 
    3192, 
    3193, 
    3194, 
    3195, 
    3196, 
    3197, 
    3198, 
    3202, 
    3203, 
    3204, 
    3205, 
    3206, 
    3207, 
    3208, 
    3209, 
    3210, 
    3211, 
    3212, 
    3213, 
    3214, 
    3215, 
    3216, 
    3217, 
    3218, 
    3219, 
    3220, 
    3221, 
    3222, 
    3223, 
    3224, 
    3225, 
    3226, 
    3227, 
    3231, 
    3232, 
    3233, 
    3234, 
    3235, 
    3236, 
    3237, 
    3238, 
    3239, 
    3240, 
    3241, 
    3242, 
    3243, 
    3244, 
    3245, 
    3246, 
    3247, 
    3248, 
    3249, 
    3250, 
    3251, 
    3252, 
    3253, 
    3254, 
    3255, 
    3256, 
    3260, 
    3261, 
    3262, 
    3263, 
    3264, 
    3265, 
    3266, 
    3267, 
    3268, 
    3269, 
    3270, 
    3271, 
    3272, 
    3273, 
    3274, 
    3275, 
    3276, 
    3277, 
    3278, 
    3279, 
    3280, 
    3281, 
    3282, 
    3283, 
    3284, 
    3285, 
    3289, 
    3290, 
    3291, 
    3292, 
    3293, 
    3294, 
    3295, 
    3296, 
    3297, 
    3298, 
    3299, 
    3300, 
    3301, 
    3302, 
    3303, 
    3304, 
    3305, 
    3306, 
    3307, 
    3308, 
    3309, 
    3310, 
    3311, 
    3312, 
    3313, 
    3314, 
    3318, 
    3319, 
    3320, 
    3321, 
    3322, 
    3323, 
    3324, 
    3325, 
    3326, 
    3327, 
    3328, 
    3329, 
    3330, 
    3331, 
    3332, 
    3333, 
    3334, 
    3335, 
    3336, 
    3337, 
    3338, 
    3339, 
    3340, 
    3341, 
    3342, 
    3343, 
    3347, 
    3348, 
    3349, 
    3350, 
    3351, 
    3352, 
    3353, 
    3354, 
    3355, 
    3356, 
    3357, 
    3358, 
    3359, 
    3360, 
    3361, 
    3362, 
    3363, 
    3364, 
    3365, 
    3366, 
    3367, 
    3368, 
    3369, 
    3370, 
    3371, 
    3372, 
    3376, 
    3377, 
    3378, 
    3379, 
    3380, 
    3381, 
    3382, 
    3383, 
    3384, 
    3385, 
    3386, 
    3387, 
    3388, 
    3389, 
    3390, 
    3391, 
    3392, 
    3393, 
    3394, 
    3395, 
    3396, 
    3397, 
    3398, 
    3399, 
    3400, 
    3401, 
    3405, 
    3406, 
    3407, 
    3408, 
    3409, 
    3410, 
    3411, 
    3412, 
    3413, 
    3414, 
    3415, 
    3416, 
    3417, 
    3418, 
    3419, 
    3420, 
    3421, 
    3422, 
    3423, 
    3424, 
    3425, 
    3426, 
    3427, 
    3428, 
    3429, 
    3430, 
    3434, 
    3435, 
    3436, 
    3437, 
    3438, 
    3439, 
    3440, 
    3441, 
    3442, 
    3443, 
    3444, 
    3445, 
    3446, 
    3447, 
    3448, 
    3449, 
    3450, 
    3451, 
    3452, 
    3453, 
    3454, 
    3455, 
    3456, 
    3457, 
    3458, 
    3459, 
    3463, 
    3464, 
    3465, 
    3466, 
    3467, 
    3468, 
    3469, 
    3470, 
    3471, 
    3472, 
    3473, 
    3474, 
    3475, 
    3476, 
    3477, 
    3478, 
    3479, 
    3480, 
    3481, 
    3482, 
    3483, 
    3484, 
    3485, 
    3486, 
    3487, 
    3488, 
    3492, 
    3493, 
    3494, 
    3495, 
    3496, 
    3497, 
    3498, 
    3499, 
    3500, 
    3501, 
    3502, 
    3503, 
    3504, 
    3505, 
    3506, 
    3507, 
    3508, 
    3509, 
    3510, 
    3511, 
    3512, 
    3513, 
    3514, 
    3515, 
    3516, 
    3517, 
    3521, 
    3522, 
    3523, 
    3524, 
    3525, 
    3526, 
    3527, 
    3528, 
    3529, 
    3530, 
    3531, 
    3532, 
    3533, 
    3534, 
    3535, 
    3536, 
    3537, 
    3538, 
    3539, 
    3540, 
    3541, 
    3542, 
    3543, 
    3544, 
    3545, 
    3546, 
    3550, 
    3551, 
    3552, 
    3553, 
    3554, 
    3555, 
    3556, 
    3557, 
    3558, 
    3559, 
    3560, 
    3561, 
    3562, 
    3563, 
    3564, 
    3565, 
    3566, 
    3567, 
    3568, 
    3569, 
    3570, 
    3571, 
    3572, 
    3573, 
    3574, 
    3575, 
    3579, 
    3580, 
    3581, 
    3582, 
    3583, 
    3584, 
    3585, 
    3586, 
    3587, 
    3588, 
    3589, 
    3590, 
    3591, 
    3592, 
    3593, 
    3594, 
    3595, 
    3596, 
    3597, 
    3598, 
    3599, 
    3600, 
    3601, 
    3602, 
    3603, 
    3604, 
    3608, 
    3609, 
    3610, 
    3611, 
    3612, 
    3613, 
    3614, 
    3615, 
    3616, 
    3617, 
    3618, 
    3619, 
    3620, 
    3621, 
    3622, 
    3623, 
    3624, 
    3625, 
    3626, 
    3627, 
    3628, 
    3629, 
    3630, 
    3631, 
    3632, 
    3633, 
    3637, 
    3638, 
    3639, 
    3640, 
    3641, 
    3642, 
    3643, 
    3644, 
    3645, 
    3646, 
    3647, 
    3648, 
    3649, 
    3650, 
    3651, 
    3652, 
    3653, 
    3654, 
    3655, 
    3656, 
    3657, 
    3658, 
    3659, 
    3660, 
    3661, 
    3662, 
    3666, 
    3667, 
    3668, 
    3669, 
    3670, 
    3671, 
    3672, 
    3673, 
    3674, 
    3675, 
    3676, 
    3677, 
    3678, 
    3679, 
    3680, 
    3681, 
    3682, 
    3683, 
    3684, 
    3685, 
    3686, 
    3687, 
    3688, 
    3689, 
    3690, 
    3691, 
    3695, 
    3696, 
    3697, 
    3698, 
    3699, 
    3700, 
    3701, 
    3702, 
    3703, 
    3704, 
    3705, 
    3706, 
    3707, 
    3708, 
    3709, 
    3710, 
    3711, 
    3712, 
    3713, 
    3714, 
    3715, 
    3716, 
    3717, 
    3718, 
    3719, 
    3720, 
    3724, 
    3725, 
    3726, 
    3727, 
    3728, 
    3729, 
    3730, 
    3731, 
    3732, 
    3733, 
    3734, 
    3735, 
    3736, 
    3737, 
    3738, 
    3739, 
    3740, 
    3741, 
    3742, 
    3743, 
    3744, 
    3745, 
    3746, 
    3747, 
    3748, 
    3749, 
    3753, 
    3754, 
    3755, 
    3756, 
    3757, 
    3758, 
    3759, 
    3760, 
    3761, 
    3762, 
    3763, 
    3764, 
    3765, 
    3766, 
    3767, 
    3768, 
    3769, 
    3770, 
    3771, 
    3772, 
    3773, 
    3774, 
    3775, 
    3776, 
    3777, 
    3778, 
    3782, 
    3783, 
    3784, 
    3785, 
    3786, 
    3787, 
    3788, 
    3789, 
    3790, 
    3791, 
    3792, 
    3793, 
    3794, 
    3795, 
    3796, 
    3797, 
    3798, 
    3799, 
    3800, 
    3801, 
    3802, 
    3803, 
    3804, 
    3805, 
    3806, 
    3807, 
    3811, 
    3812, 
    3813, 
    3814, 
    3815, 
    3816, 
    3817, 
    3818, 
    3819, 
    3820, 
    3821, 
    3822, 
    3823, 
    3824, 
    3825, 
    3826, 
    3827, 
    3828, 
    3829, 
    3830, 
    3831, 
    3832, 
    3833, 
    3834, 
    3835, 
    3836, 
    3840, 
    3841, 
    3842, 
    3843, 
    3844, 
    3845, 
    3846, 
    3847, 
    3848, 
    3849, 
    3850, 
    3851, 
    3852, 
    3853, 
    3854, 
    3855, 
    3856, 
    3857, 
    3858, 
    3859, 
    3860, 
    3861, 
    3862, 
    3863, 
    3864, 
    3865, 
    3869, 
    3870, 
    3871, 
    3872, 
    3873, 
    3874, 
    3875, 
    3876, 
    3877, 
    3878, 
    3879, 
    3880, 
    3881, 
    3882, 
    3883, 
    3884, 
    3885, 
    3886, 
    3887, 
    3888, 
    3889, 
    3890, 
    3891, 
    3892, 
    3893, 
    3894, 
    3898, 
    3899, 
    3900, 
    3901, 
    3902, 
    3903, 
    3904, 
    3905, 
    3906, 
    3907, 
    3908, 
    3909, 
    3910, 
    3911, 
    3912, 
    3913, 
    3914, 
    3915, 
    3916, 
    3917, 
    3918, 
    3919, 
    3920, 
    3921, 
    3922, 
    3923, 
    3927, 
    3928, 
    3929, 
    3930, 
    3931, 
    3932, 
    3933, 
    3934, 
    3935, 
    3936, 
    3937, 
    3938, 
    3939, 
    3940, 
    3941, 
    3942, 
    3943, 
    3944, 
    3945, 
    3946, 
    3947, 
    3948, 
    3949, 
    3950, 
    3951, 
    3952, 
    3956, 
    3957, 
    3958, 
    3959, 
    3960, 
    3961, 
    3962, 
    3963, 
    3964, 
    3965, 
    3966, 
    3967, 
    3968, 
    3969, 
    3970, 
    3971, 
    3972, 
    3973, 
    3974, 
    3975, 
    3976, 
    3977, 
    3978, 
    3979, 
    3980, 
    3981, 
    3985, 
    3986, 
    3987, 
    3988, 
    3989, 
    3990, 
    3991, 
    3992, 
    3993, 
    3994, 
    3995, 
    3996, 
    3997, 
    3998, 
    3999, 
    4000, 
    4001, 
    4002, 
    4003, 
    4004, 
    4005, 
    4006, 
    4007, 
    4008, 
    4009, 
    4010, 
    4011, 
    4012, 
    4013, 
    4014
  ], 
  "heads": [[3296, 0, 0]], 
  "attrs": {"mxnet_version": ["int", 10000]}
}